<?xml version="1.0" ?>
<net name="RMNet_SSD" version="10">
	<layers>
		<layer id="0" name="data" type="Parameter" version="opset1">
			<data element_type="f16" shape="1,3,1024,1024"/>
			<output>
				<port id="0" precision="FP16">
					<dim>1</dim>
					<dim>3</dim>
					<dim>1024</dim>
					<dim>1024</dim>
				</port>
			</output>
		</layer>
		<layer id="1" name="data_add_/copy_const721_const" type="Const" version="opset1">
			<data element_type="f16" offset="0" shape="1,3,1,1" size="6"/>
			<output>
				<port id="1" precision="FP16">
					<dim>1</dim>
					<dim>3</dim>
					<dim>1</dim>
					<dim>1</dim>
				</port>
			</output>
		</layer>
		<layer id="2" name="Add_" type="Add" version="opset1">
			<input>
				<port id="0">
					<dim>1</dim>
					<dim>3</dim>
					<dim>1024</dim>
					<dim>1024</dim>
				</port>
				<port id="1">
					<dim>1</dim>
					<dim>3</dim>
					<dim>1</dim>
					<dim>1</dim>
				</port>
			</input>
			<output>
				<port id="2" precision="FP16">
					<dim>1</dim>
					<dim>3</dim>
					<dim>1024</dim>
					<dim>1024</dim>
				</port>
			</output>
		</layer>
		<layer id="3" name="52555259_const" type="Const" version="opset1">
			<data element_type="f16" offset="6" shape="" size="2"/>
			<output>
				<port id="1" precision="FP16"/>
			</output>
		</layer>
		<layer id="4" name="52565260_const" type="Const" version="opset1">
			<data element_type="f16" offset="8" shape="" size="2"/>
			<output>
				<port id="1" precision="FP16"/>
			</output>
		</layer>
		<layer id="5" name="52575261_const" type="Const" version="opset1">
			<data element_type="f16" offset="6" shape="" size="2"/>
			<output>
				<port id="1" precision="FP16"/>
			</output>
		</layer>
		<layer id="6" name="52585262_const" type="Const" version="opset1">
			<data element_type="f16" offset="8" shape="" size="2"/>
			<output>
				<port id="1" precision="FP16"/>
			</output>
		</layer>
		<layer id="7" name="data_bn/mean/Fused_Mul_/fq_input_0" type="FakeQuantize" version="opset1">
			<data levels="256"/>
			<input>
				<port id="0">
					<dim>1</dim>
					<dim>3</dim>
					<dim>1024</dim>
					<dim>1024</dim>
				</port>
				<port id="1"/>
				<port id="2"/>
				<port id="3"/>
				<port id="4"/>
			</input>
			<output>
				<port id="5" precision="FP16">
					<dim>1</dim>
					<dim>3</dim>
					<dim>1024</dim>
					<dim>1024</dim>
				</port>
			</output>
		</layer>
		<layer id="8" name="data_mul_25642/copy_const723_const" type="Const" version="opset1">
			<data element_type="f16" offset="10" shape="1,3,1,1" size="6"/>
			<output>
				<port id="1" precision="FP16">
					<dim>1</dim>
					<dim>3</dim>
					<dim>1</dim>
					<dim>1</dim>
				</port>
			</output>
		</layer>
		<layer id="9" name="data_bn/mean/Fused_Mul_" type="Multiply" version="opset1">
			<input>
				<port id="0">
					<dim>1</dim>
					<dim>3</dim>
					<dim>1024</dim>
					<dim>1024</dim>
				</port>
				<port id="1">
					<dim>1</dim>
					<dim>3</dim>
					<dim>1</dim>
					<dim>1</dim>
				</port>
			</input>
			<output>
				<port id="2" precision="FP16">
					<dim>1</dim>
					<dim>3</dim>
					<dim>1024</dim>
					<dim>1024</dim>
				</port>
			</output>
		</layer>
		<layer id="10" name="data_add_2563925644/copy_const725_const" type="Const" version="opset1">
			<data element_type="f16" offset="16" shape="1,3,1,1" size="6"/>
			<output>
				<port id="1" precision="FP16">
					<dim>1</dim>
					<dim>3</dim>
					<dim>1</dim>
					<dim>1</dim>
				</port>
			</output>
		</layer>
		<layer id="11" name="data_bn/variance/Fused_Add_" type="Add" version="opset1">
			<input>
				<port id="0">
					<dim>1</dim>
					<dim>3</dim>
					<dim>1024</dim>
					<dim>1024</dim>
				</port>
				<port id="1">
					<dim>1</dim>
					<dim>3</dim>
					<dim>1</dim>
					<dim>1</dim>
				</port>
			</input>
			<output>
				<port id="2" precision="FP16">
					<dim>1</dim>
					<dim>3</dim>
					<dim>1024</dim>
					<dim>1024</dim>
				</port>
			</output>
		</layer>
		<layer id="12" name="39553959_const" type="Const" version="opset1">
			<data element_type="f16" offset="22" shape="" size="2"/>
			<output>
				<port id="1" precision="FP16"/>
			</output>
		</layer>
		<layer id="13" name="39563960_const" type="Const" version="opset1">
			<data element_type="f16" offset="24" shape="" size="2"/>
			<output>
				<port id="1" precision="FP16"/>
			</output>
		</layer>
		<layer id="14" name="39573961_const" type="Const" version="opset1">
			<data element_type="f16" offset="22" shape="" size="2"/>
			<output>
				<port id="1" precision="FP16"/>
			</output>
		</layer>
		<layer id="15" name="39583962_const" type="Const" version="opset1">
			<data element_type="f16" offset="24" shape="" size="2"/>
			<output>
				<port id="1" precision="FP16"/>
			</output>
		</layer>
		<layer id="16" name="conv0/WithoutBiases/fq_input_0" type="FakeQuantize" version="opset1">
			<data levels="256"/>
			<input>
				<port id="0">
					<dim>1</dim>
					<dim>3</dim>
					<dim>1024</dim>
					<dim>1024</dim>
				</port>
				<port id="1"/>
				<port id="2"/>
				<port id="3"/>
				<port id="4"/>
			</input>
			<output>
				<port id="5" precision="FP16">
					<dim>1</dim>
					<dim>3</dim>
					<dim>1024</dim>
					<dim>1024</dim>
				</port>
			</output>
		</layer>
		<layer id="17" name="conv0/WithoutBiases/fq_weights_1/Convert_to_float/Cast_012563_const" type="Const" version="opset1">
			<data element_type="u8" offset="26" shape="3,3,7,7" size="441"/>
			<output>
				<port id="1" precision="U8">
					<dim>3</dim>
					<dim>3</dim>
					<dim>7</dim>
					<dim>7</dim>
				</port>
			</output>
		</layer>
		<layer id="18" name="conv0/WithoutBiases/fq_weights_1/Convert_to_float" type="Convert" version="opset1">
			<data destination_type="f16"/>
			<input>
				<port id="0">
					<dim>3</dim>
					<dim>3</dim>
					<dim>7</dim>
					<dim>7</dim>
				</port>
			</input>
			<output>
				<port id="1" precision="FP16">
					<dim>3</dim>
					<dim>3</dim>
					<dim>7</dim>
					<dim>7</dim>
				</port>
			</output>
		</layer>
		<layer id="19" name="conv0/WithoutBiases/fq_weights_1/Copy/out_low10299_const" type="Const" version="opset1">
			<data element_type="f16" offset="467" shape="1" size="2"/>
			<output>
				<port id="1" precision="FP16">
					<dim>1</dim>
				</port>
			</output>
		</layer>
		<layer id="20" name="conv0/WithoutBiases/fq_weights_1/Copy/out_high10300_const" type="Const" version="opset1">
			<data element_type="f16" offset="469" shape="1" size="2"/>
			<output>
				<port id="1" precision="FP16">
					<dim>1</dim>
				</port>
			</output>
		</layer>
		<layer id="21" name="39673971_const" type="Const" version="opset1">
			<data element_type="f16" offset="471" shape="3,1,1,1" size="6"/>
			<output>
				<port id="1" precision="FP16">
					<dim>3</dim>
					<dim>1</dim>
					<dim>1</dim>
					<dim>1</dim>
				</port>
			</output>
		</layer>
		<layer id="22" name="39683972_const" type="Const" version="opset1">
			<data element_type="f16" offset="477" shape="3,1,1,1" size="6"/>
			<output>
				<port id="1" precision="FP16">
					<dim>3</dim>
					<dim>1</dim>
					<dim>1</dim>
					<dim>1</dim>
				</port>
			</output>
		</layer>
		<layer id="23" name="conv0/WithoutBiases/fq_weights_1" type="FakeQuantize" version="opset1">
			<data levels="255"/>
			<input>
				<port id="0">
					<dim>3</dim>
					<dim>3</dim>
					<dim>7</dim>
					<dim>7</dim>
				</port>
				<port id="1">
					<dim>1</dim>
				</port>
				<port id="2">
					<dim>1</dim>
				</port>
				<port id="3">
					<dim>3</dim>
					<dim>1</dim>
					<dim>1</dim>
					<dim>1</dim>
				</port>
				<port id="4">
					<dim>3</dim>
					<dim>1</dim>
					<dim>1</dim>
					<dim>1</dim>
				</port>
			</input>
			<output>
				<port id="5" precision="FP16">
					<dim>3</dim>
					<dim>3</dim>
					<dim>7</dim>
					<dim>7</dim>
				</port>
			</output>
		</layer>
		<layer id="24" name="conv0/WithoutBiases" type="Convolution" version="opset1">
			<data dilations="1,1" output_padding="0,0" pads_begin="3,3" pads_end="3,3" strides="2,2"/>
			<input>
				<port id="0">
					<dim>1</dim>
					<dim>3</dim>
					<dim>1024</dim>
					<dim>1024</dim>
				</port>
				<port id="1">
					<dim>3</dim>
					<dim>3</dim>
					<dim>7</dim>
					<dim>7</dim>
				</port>
			</input>
			<output>
				<port id="2" precision="FP16">
					<dim>1</dim>
					<dim>3</dim>
					<dim>512</dim>
					<dim>512</dim>
				</port>
			</output>
		</layer>
		<layer id="25" name="data_add_2564725652/copy_const729_const" type="Const" version="opset1">
			<data element_type="f16" offset="483" shape="1,3,1,1" size="6"/>
			<output>
				<port id="1" precision="FP16">
					<dim>1</dim>
					<dim>3</dim>
					<dim>1</dim>
					<dim>1</dim>
				</port>
			</output>
		</layer>
		<layer id="26" name="conv0/Fused_Add_" type="Add" version="opset1">
			<input>
				<port id="0">
					<dim>1</dim>
					<dim>3</dim>
					<dim>512</dim>
					<dim>512</dim>
				</port>
				<port id="1">
					<dim>1</dim>
					<dim>3</dim>
					<dim>1</dim>
					<dim>1</dim>
				</port>
			</input>
			<output>
				<port id="2" precision="FP16">
					<dim>1</dim>
					<dim>3</dim>
					<dim>512</dim>
					<dim>512</dim>
				</port>
			</output>
		</layer>
		<layer id="27" name="conv0_relu" type="ReLU" version="opset1">
			<input>
				<port id="0">
					<dim>1</dim>
					<dim>3</dim>
					<dim>512</dim>
					<dim>512</dim>
				</port>
			</input>
			<output>
				<port id="1" precision="FP16">
					<dim>1</dim>
					<dim>3</dim>
					<dim>512</dim>
					<dim>512</dim>
				</port>
			</output>
		</layer>
		<layer id="28" name="27552759_const" type="Const" version="opset1">
			<data element_type="f16" offset="467" shape="" size="2"/>
			<output>
				<port id="1" precision="FP16"/>
			</output>
		</layer>
		<layer id="29" name="27562760_const" type="Const" version="opset1">
			<data element_type="f16" offset="489" shape="" size="2"/>
			<output>
				<port id="1" precision="FP16"/>
			</output>
		</layer>
		<layer id="30" name="27572761_const" type="Const" version="opset1">
			<data element_type="f16" offset="467" shape="" size="2"/>
			<output>
				<port id="1" precision="FP16"/>
			</output>
		</layer>
		<layer id="31" name="27582762_const" type="Const" version="opset1">
			<data element_type="f16" offset="489" shape="" size="2"/>
			<output>
				<port id="1" precision="FP16"/>
			</output>
		</layer>
		<layer id="32" name="init_block1/dim_inc/conv/fq_input_0" type="FakeQuantize" version="opset1">
			<data levels="256"/>
			<input>
				<port id="0">
					<dim>1</dim>
					<dim>3</dim>
					<dim>512</dim>
					<dim>512</dim>
				</port>
				<port id="1"/>
				<port id="2"/>
				<port id="3"/>
				<port id="4"/>
			</input>
			<output>
				<port id="5" precision="FP16">
					<dim>1</dim>
					<dim>3</dim>
					<dim>512</dim>
					<dim>512</dim>
				</port>
			</output>
		</layer>
		<layer id="33" name="init_block1/dim_inc/conv/fq_weights_1/Convert_to_float/Cast_012445_const" type="Const" version="opset1">
			<data element_type="u8" offset="491" shape="32,3,3,3" size="864"/>
			<output>
				<port id="1" precision="U8">
					<dim>32</dim>
					<dim>3</dim>
					<dim>3</dim>
					<dim>3</dim>
				</port>
			</output>
		</layer>
		<layer id="34" name="init_block1/dim_inc/conv/fq_weights_1/Convert_to_float" type="Convert" version="opset1">
			<data destination_type="f16"/>
			<input>
				<port id="0">
					<dim>32</dim>
					<dim>3</dim>
					<dim>3</dim>
					<dim>3</dim>
				</port>
			</input>
			<output>
				<port id="1" precision="FP16">
					<dim>32</dim>
					<dim>3</dim>
					<dim>3</dim>
					<dim>3</dim>
				</port>
			</output>
		</layer>
		<layer id="35" name="init_block1/dim_inc/conv/fq_weights_1/Copy/out_low10963_const" type="Const" version="opset1">
			<data element_type="f16" offset="467" shape="1" size="2"/>
			<output>
				<port id="1" precision="FP16">
					<dim>1</dim>
				</port>
			</output>
		</layer>
		<layer id="36" name="init_block1/dim_inc/conv/fq_weights_1/Copy/out_high10964_const" type="Const" version="opset1">
			<data element_type="f16" offset="469" shape="1" size="2"/>
			<output>
				<port id="1" precision="FP16">
					<dim>1</dim>
				</port>
			</output>
		</layer>
		<layer id="37" name="27672771_const" type="Const" version="opset1">
			<data element_type="f16" offset="1355" shape="32,1,1,1" size="64"/>
			<output>
				<port id="1" precision="FP16">
					<dim>32</dim>
					<dim>1</dim>
					<dim>1</dim>
					<dim>1</dim>
				</port>
			</output>
		</layer>
		<layer id="38" name="27682772_const" type="Const" version="opset1">
			<data element_type="f16" offset="1419" shape="32,1,1,1" size="64"/>
			<output>
				<port id="1" precision="FP16">
					<dim>32</dim>
					<dim>1</dim>
					<dim>1</dim>
					<dim>1</dim>
				</port>
			</output>
		</layer>
		<layer id="39" name="init_block1/dim_inc/conv/fq_weights_1" type="FakeQuantize" version="opset1">
			<data levels="255"/>
			<input>
				<port id="0">
					<dim>32</dim>
					<dim>3</dim>
					<dim>3</dim>
					<dim>3</dim>
				</port>
				<port id="1">
					<dim>1</dim>
				</port>
				<port id="2">
					<dim>1</dim>
				</port>
				<port id="3">
					<dim>32</dim>
					<dim>1</dim>
					<dim>1</dim>
					<dim>1</dim>
				</port>
				<port id="4">
					<dim>32</dim>
					<dim>1</dim>
					<dim>1</dim>
					<dim>1</dim>
				</port>
			</input>
			<output>
				<port id="5" precision="FP16">
					<dim>32</dim>
					<dim>3</dim>
					<dim>3</dim>
					<dim>3</dim>
				</port>
			</output>
		</layer>
		<layer id="40" name="init_block1/dim_inc/conv" type="Convolution" version="opset1">
			<data dilations="1,1" output_padding="0,0" pads_begin="1,1" pads_end="1,1" strides="2,2"/>
			<input>
				<port id="0">
					<dim>1</dim>
					<dim>3</dim>
					<dim>512</dim>
					<dim>512</dim>
				</port>
				<port id="1">
					<dim>32</dim>
					<dim>3</dim>
					<dim>3</dim>
					<dim>3</dim>
				</port>
			</input>
			<output>
				<port id="2" precision="FP16">
					<dim>1</dim>
					<dim>32</dim>
					<dim>256</dim>
					<dim>256</dim>
				</port>
			</output>
		</layer>
		<layer id="41" name="data_add_2565525660/copy_const734_const" type="Const" version="opset1">
			<data element_type="f16" offset="1483" shape="1,32,1,1" size="64"/>
			<output>
				<port id="1" precision="FP16">
					<dim>1</dim>
					<dim>32</dim>
					<dim>1</dim>
					<dim>1</dim>
				</port>
			</output>
		</layer>
		<layer id="42" name="init_block1/dim_inc/bn/variance/Fused_Add_" type="Add" version="opset1">
			<input>
				<port id="0">
					<dim>1</dim>
					<dim>32</dim>
					<dim>256</dim>
					<dim>256</dim>
				</port>
				<port id="1">
					<dim>1</dim>
					<dim>32</dim>
					<dim>1</dim>
					<dim>1</dim>
				</port>
			</input>
			<output>
				<port id="2" precision="FP16">
					<dim>1</dim>
					<dim>32</dim>
					<dim>256</dim>
					<dim>256</dim>
				</port>
			</output>
		</layer>
		<layer id="43" name="init_block1/dim_inc/fn" type="ReLU" version="opset1">
			<input>
				<port id="0">
					<dim>1</dim>
					<dim>32</dim>
					<dim>256</dim>
					<dim>256</dim>
				</port>
			</input>
			<output>
				<port id="1" precision="FP16">
					<dim>1</dim>
					<dim>32</dim>
					<dim>256</dim>
					<dim>256</dim>
				</port>
			</output>
		</layer>
		<layer id="44" name="23452349_const" type="Const" version="opset1">
			<data element_type="f16" offset="467" shape="" size="2"/>
			<output>
				<port id="1" precision="FP16"/>
			</output>
		</layer>
		<layer id="45" name="23462350_const" type="Const" version="opset1">
			<data element_type="f16" offset="1547" shape="" size="2"/>
			<output>
				<port id="1" precision="FP16"/>
			</output>
		</layer>
		<layer id="46" name="23472351_const" type="Const" version="opset1">
			<data element_type="f16" offset="467" shape="" size="2"/>
			<output>
				<port id="1" precision="FP16"/>
			</output>
		</layer>
		<layer id="47" name="23482352_const" type="Const" version="opset1">
			<data element_type="f16" offset="1547" shape="" size="2"/>
			<output>
				<port id="1" precision="FP16"/>
			</output>
		</layer>
		<layer id="48" name="bottleneck1_1/add/fq_input_0" type="FakeQuantize" version="opset1">
			<data levels="256"/>
			<input>
				<port id="0">
					<dim>1</dim>
					<dim>32</dim>
					<dim>256</dim>
					<dim>256</dim>
				</port>
				<port id="1"/>
				<port id="2"/>
				<port id="3"/>
				<port id="4"/>
			</input>
			<output>
				<port id="5" precision="FP16">
					<dim>1</dim>
					<dim>32</dim>
					<dim>256</dim>
					<dim>256</dim>
				</port>
			</output>
		</layer>
		<layer id="49" name="bottleneck1_1/dim_red/conv/fq_weights_1/Convert_to_float/Cast_012443_const" type="Const" version="opset1">
			<data element_type="u8" offset="1549" shape="8,32,1,1" size="256"/>
			<output>
				<port id="1" precision="U8">
					<dim>8</dim>
					<dim>32</dim>
					<dim>1</dim>
					<dim>1</dim>
				</port>
			</output>
		</layer>
		<layer id="50" name="bottleneck1_1/dim_red/conv/fq_weights_1/Convert_to_float" type="Convert" version="opset1">
			<data destination_type="f16"/>
			<input>
				<port id="0">
					<dim>8</dim>
					<dim>32</dim>
					<dim>1</dim>
					<dim>1</dim>
				</port>
			</input>
			<output>
				<port id="1" precision="FP16">
					<dim>8</dim>
					<dim>32</dim>
					<dim>1</dim>
					<dim>1</dim>
				</port>
			</output>
		</layer>
		<layer id="51" name="bottleneck1_1/dim_red/conv/fq_weights_1/Copy/out_low10595_const" type="Const" version="opset1">
			<data element_type="f16" offset="467" shape="1" size="2"/>
			<output>
				<port id="1" precision="FP16">
					<dim>1</dim>
				</port>
			</output>
		</layer>
		<layer id="52" name="bottleneck1_1/dim_red/conv/fq_weights_1/Copy/out_high10596_const" type="Const" version="opset1">
			<data element_type="f16" offset="469" shape="1" size="2"/>
			<output>
				<port id="1" precision="FP16">
					<dim>1</dim>
				</port>
			</output>
		</layer>
		<layer id="53" name="24772481_const" type="Const" version="opset1">
			<data element_type="f16" offset="1805" shape="8,1,1,1" size="16"/>
			<output>
				<port id="1" precision="FP16">
					<dim>8</dim>
					<dim>1</dim>
					<dim>1</dim>
					<dim>1</dim>
				</port>
			</output>
		</layer>
		<layer id="54" name="24782482_const" type="Const" version="opset1">
			<data element_type="f16" offset="1821" shape="8,1,1,1" size="16"/>
			<output>
				<port id="1" precision="FP16">
					<dim>8</dim>
					<dim>1</dim>
					<dim>1</dim>
					<dim>1</dim>
				</port>
			</output>
		</layer>
		<layer id="55" name="bottleneck1_1/dim_red/conv/fq_weights_1" type="FakeQuantize" version="opset1">
			<data levels="255"/>
			<input>
				<port id="0">
					<dim>8</dim>
					<dim>32</dim>
					<dim>1</dim>
					<dim>1</dim>
				</port>
				<port id="1">
					<dim>1</dim>
				</port>
				<port id="2">
					<dim>1</dim>
				</port>
				<port id="3">
					<dim>8</dim>
					<dim>1</dim>
					<dim>1</dim>
					<dim>1</dim>
				</port>
				<port id="4">
					<dim>8</dim>
					<dim>1</dim>
					<dim>1</dim>
					<dim>1</dim>
				</port>
			</input>
			<output>
				<port id="5" precision="FP16">
					<dim>8</dim>
					<dim>32</dim>
					<dim>1</dim>
					<dim>1</dim>
				</port>
			</output>
		</layer>
		<layer id="56" name="bottleneck1_1/dim_red/conv" type="Convolution" version="opset1">
			<data dilations="1,1" output_padding="0,0" pads_begin="0,0" pads_end="0,0" strides="1,1"/>
			<input>
				<port id="0">
					<dim>1</dim>
					<dim>32</dim>
					<dim>256</dim>
					<dim>256</dim>
				</port>
				<port id="1">
					<dim>8</dim>
					<dim>32</dim>
					<dim>1</dim>
					<dim>1</dim>
				</port>
			</input>
			<output>
				<port id="2" precision="FP16">
					<dim>1</dim>
					<dim>8</dim>
					<dim>256</dim>
					<dim>256</dim>
				</port>
			</output>
		</layer>
		<layer id="57" name="data_add_2566325668/copy_const739_const" type="Const" version="opset1">
			<data element_type="f16" offset="1837" shape="1,8,1,1" size="16"/>
			<output>
				<port id="1" precision="FP16">
					<dim>1</dim>
					<dim>8</dim>
					<dim>1</dim>
					<dim>1</dim>
				</port>
			</output>
		</layer>
		<layer id="58" name="bottleneck1_1/dim_red/bn/variance/Fused_Add_" type="Add" version="opset1">
			<input>
				<port id="0">
					<dim>1</dim>
					<dim>8</dim>
					<dim>256</dim>
					<dim>256</dim>
				</port>
				<port id="1">
					<dim>1</dim>
					<dim>8</dim>
					<dim>1</dim>
					<dim>1</dim>
				</port>
			</input>
			<output>
				<port id="2" precision="FP16">
					<dim>1</dim>
					<dim>8</dim>
					<dim>256</dim>
					<dim>256</dim>
				</port>
			</output>
		</layer>
		<layer id="59" name="bottleneck1_1/dim_red/fn" type="Elu" version="opset1">
			<data alpha="1.0"/>
			<input>
				<port id="0">
					<dim>1</dim>
					<dim>8</dim>
					<dim>256</dim>
					<dim>256</dim>
				</port>
			</input>
			<output>
				<port id="1" precision="FP16">
					<dim>1</dim>
					<dim>8</dim>
					<dim>256</dim>
					<dim>256</dim>
				</port>
			</output>
		</layer>
		<layer id="60" name="36953699_const" type="Const" version="opset1">
			<data element_type="f16" offset="1853" shape="1,8,1,1" size="16"/>
			<output>
				<port id="1" precision="FP16">
					<dim>1</dim>
					<dim>8</dim>
					<dim>1</dim>
					<dim>1</dim>
				</port>
			</output>
		</layer>
		<layer id="61" name="36963700_const" type="Const" version="opset1">
			<data element_type="f16" offset="1869" shape="1,8,1,1" size="16"/>
			<output>
				<port id="1" precision="FP16">
					<dim>1</dim>
					<dim>8</dim>
					<dim>1</dim>
					<dim>1</dim>
				</port>
			</output>
		</layer>
		<layer id="62" name="36973701_const" type="Const" version="opset1">
			<data element_type="f16" offset="1853" shape="1,8,1,1" size="16"/>
			<output>
				<port id="1" precision="FP16">
					<dim>1</dim>
					<dim>8</dim>
					<dim>1</dim>
					<dim>1</dim>
				</port>
			</output>
		</layer>
		<layer id="63" name="36983702_const" type="Const" version="opset1">
			<data element_type="f16" offset="1869" shape="1,8,1,1" size="16"/>
			<output>
				<port id="1" precision="FP16">
					<dim>1</dim>
					<dim>8</dim>
					<dim>1</dim>
					<dim>1</dim>
				</port>
			</output>
		</layer>
		<layer id="64" name="bottleneck1_1/inner/dw1/conv/fq_input_0" type="FakeQuantize" version="opset1">
			<data levels="256"/>
			<input>
				<port id="0">
					<dim>1</dim>
					<dim>8</dim>
					<dim>256</dim>
					<dim>256</dim>
				</port>
				<port id="1">
					<dim>1</dim>
					<dim>8</dim>
					<dim>1</dim>
					<dim>1</dim>
				</port>
				<port id="2">
					<dim>1</dim>
					<dim>8</dim>
					<dim>1</dim>
					<dim>1</dim>
				</port>
				<port id="3">
					<dim>1</dim>
					<dim>8</dim>
					<dim>1</dim>
					<dim>1</dim>
				</port>
				<port id="4">
					<dim>1</dim>
					<dim>8</dim>
					<dim>1</dim>
					<dim>1</dim>
				</port>
			</input>
			<output>
				<port id="5" precision="FP16">
					<dim>1</dim>
					<dim>8</dim>
					<dim>256</dim>
					<dim>256</dim>
				</port>
			</output>
		</layer>
		<layer id="65" name="bottleneck1_1/inner/dw1/conv/fq_weights_1/Convert_to_float/Cast_012425_const" type="Const" version="opset1">
			<data element_type="u8" offset="1885" shape="8,1,3,3" size="72"/>
			<output>
				<port id="1" precision="U8">
					<dim>8</dim>
					<dim>1</dim>
					<dim>3</dim>
					<dim>3</dim>
				</port>
			</output>
		</layer>
		<layer id="66" name="bottleneck1_1/inner/dw1/conv/fq_weights_1/Convert_to_float" type="Convert" version="opset1">
			<data destination_type="f16"/>
			<input>
				<port id="0">
					<dim>8</dim>
					<dim>1</dim>
					<dim>3</dim>
					<dim>3</dim>
				</port>
			</input>
			<output>
				<port id="1" precision="FP16">
					<dim>8</dim>
					<dim>1</dim>
					<dim>3</dim>
					<dim>3</dim>
				</port>
			</output>
		</layer>
		<layer id="67" name="bottleneck1_1/inner/dw1/conv/fq_weights_1/Copy/out_low10931_const" type="Const" version="opset1">
			<data element_type="f16" offset="467" shape="1" size="2"/>
			<output>
				<port id="1" precision="FP16">
					<dim>1</dim>
				</port>
			</output>
		</layer>
		<layer id="68" name="bottleneck1_1/inner/dw1/conv/fq_weights_1/Copy/out_high10932_const" type="Const" version="opset1">
			<data element_type="f16" offset="469" shape="1" size="2"/>
			<output>
				<port id="1" precision="FP16">
					<dim>1</dim>
				</port>
			</output>
		</layer>
		<layer id="69" name="37073711_const" type="Const" version="opset1">
			<data element_type="f16" offset="1957" shape="8,1,1,1" size="16"/>
			<output>
				<port id="1" precision="FP16">
					<dim>8</dim>
					<dim>1</dim>
					<dim>1</dim>
					<dim>1</dim>
				</port>
			</output>
		</layer>
		<layer id="70" name="37083712_const" type="Const" version="opset1">
			<data element_type="f16" offset="1973" shape="8,1,1,1" size="16"/>
			<output>
				<port id="1" precision="FP16">
					<dim>8</dim>
					<dim>1</dim>
					<dim>1</dim>
					<dim>1</dim>
				</port>
			</output>
		</layer>
		<layer id="71" name="bottleneck1_1/inner/dw1/conv/fq_weights_1" type="FakeQuantize" version="opset1">
			<data levels="255"/>
			<input>
				<port id="0">
					<dim>8</dim>
					<dim>1</dim>
					<dim>3</dim>
					<dim>3</dim>
				</port>
				<port id="1">
					<dim>1</dim>
				</port>
				<port id="2">
					<dim>1</dim>
				</port>
				<port id="3">
					<dim>8</dim>
					<dim>1</dim>
					<dim>1</dim>
					<dim>1</dim>
				</port>
				<port id="4">
					<dim>8</dim>
					<dim>1</dim>
					<dim>1</dim>
					<dim>1</dim>
				</port>
			</input>
			<output>
				<port id="5" precision="FP16">
					<dim>8</dim>
					<dim>1</dim>
					<dim>3</dim>
					<dim>3</dim>
				</port>
			</output>
		</layer>
		<layer id="72" name="14116/value14118_const" type="Const" version="opset1">
			<data element_type="i64" offset="1989" shape="5" size="40"/>
			<output>
				<port id="1" precision="I64">
					<dim>5</dim>
				</port>
			</output>
		</layer>
		<layer id="73" name="14116" type="Reshape" version="opset1">
			<data special_zero="True"/>
			<input>
				<port id="0">
					<dim>8</dim>
					<dim>1</dim>
					<dim>3</dim>
					<dim>3</dim>
				</port>
				<port id="1">
					<dim>5</dim>
				</port>
			</input>
			<output>
				<port id="2" precision="FP16">
					<dim>8</dim>
					<dim>1</dim>
					<dim>1</dim>
					<dim>3</dim>
					<dim>3</dim>
				</port>
			</output>
		</layer>
		<layer id="74" name="bottleneck1_1/inner/dw1/conv" type="GroupConvolution" version="opset1">
			<data dilations="1,1" output_padding="0,0" pads_begin="1,1" pads_end="1,1" strides="1,1"/>
			<input>
				<port id="0">
					<dim>1</dim>
					<dim>8</dim>
					<dim>256</dim>
					<dim>256</dim>
				</port>
				<port id="1">
					<dim>8</dim>
					<dim>1</dim>
					<dim>1</dim>
					<dim>3</dim>
					<dim>3</dim>
				</port>
			</input>
			<output>
				<port id="2" precision="FP16">
					<dim>1</dim>
					<dim>8</dim>
					<dim>256</dim>
					<dim>256</dim>
				</port>
			</output>
		</layer>
		<layer id="75" name="data_add_2567125676/copy_const744_const" type="Const" version="opset1">
			<data element_type="f16" offset="2029" shape="1,8,1,1" size="16"/>
			<output>
				<port id="1" precision="FP16">
					<dim>1</dim>
					<dim>8</dim>
					<dim>1</dim>
					<dim>1</dim>
				</port>
			</output>
		</layer>
		<layer id="76" name="bottleneck1_1/inner/dw1/bn/variance/Fused_Add_" type="Add" version="opset1">
			<input>
				<port id="0">
					<dim>1</dim>
					<dim>8</dim>
					<dim>256</dim>
					<dim>256</dim>
				</port>
				<port id="1">
					<dim>1</dim>
					<dim>8</dim>
					<dim>1</dim>
					<dim>1</dim>
				</port>
			</input>
			<output>
				<port id="2" precision="FP16">
					<dim>1</dim>
					<dim>8</dim>
					<dim>256</dim>
					<dim>256</dim>
				</port>
			</output>
		</layer>
		<layer id="77" name="bottleneck1_1/inner/dw1/fn" type="Elu" version="opset1">
			<data alpha="1.0"/>
			<input>
				<port id="0">
					<dim>1</dim>
					<dim>8</dim>
					<dim>256</dim>
					<dim>256</dim>
				</port>
			</input>
			<output>
				<port id="1" precision="FP16">
					<dim>1</dim>
					<dim>8</dim>
					<dim>256</dim>
					<dim>256</dim>
				</port>
			</output>
		</layer>
		<layer id="78" name="42554259_const" type="Const" version="opset1">
			<data element_type="f16" offset="2045" shape="" size="2"/>
			<output>
				<port id="1" precision="FP16"/>
			</output>
		</layer>
		<layer id="79" name="42564260_const" type="Const" version="opset1">
			<data element_type="f16" offset="2047" shape="" size="2"/>
			<output>
				<port id="1" precision="FP16"/>
			</output>
		</layer>
		<layer id="80" name="42574261_const" type="Const" version="opset1">
			<data element_type="f16" offset="2045" shape="" size="2"/>
			<output>
				<port id="1" precision="FP16"/>
			</output>
		</layer>
		<layer id="81" name="42584262_const" type="Const" version="opset1">
			<data element_type="f16" offset="2047" shape="" size="2"/>
			<output>
				<port id="1" precision="FP16"/>
			</output>
		</layer>
		<layer id="82" name="bottleneck1_1/dim_inc/conv/fq_input_0" type="FakeQuantize" version="opset1">
			<data levels="256"/>
			<input>
				<port id="0">
					<dim>1</dim>
					<dim>8</dim>
					<dim>256</dim>
					<dim>256</dim>
				</port>
				<port id="1"/>
				<port id="2"/>
				<port id="3"/>
				<port id="4"/>
			</input>
			<output>
				<port id="5" precision="FP16">
					<dim>1</dim>
					<dim>8</dim>
					<dim>256</dim>
					<dim>256</dim>
				</port>
			</output>
		</layer>
		<layer id="83" name="bottleneck1_1/dim_inc/conv/fq_weights_1/Convert_to_float/Cast_012517_const" type="Const" version="opset1">
			<data element_type="u8" offset="2049" shape="32,8,1,1" size="256"/>
			<output>
				<port id="1" precision="U8">
					<dim>32</dim>
					<dim>8</dim>
					<dim>1</dim>
					<dim>1</dim>
				</port>
			</output>
		</layer>
		<layer id="84" name="bottleneck1_1/dim_inc/conv/fq_weights_1/Convert_to_float" type="Convert" version="opset1">
			<data destination_type="f16"/>
			<input>
				<port id="0">
					<dim>32</dim>
					<dim>8</dim>
					<dim>1</dim>
					<dim>1</dim>
				</port>
			</input>
			<output>
				<port id="1" precision="FP16">
					<dim>32</dim>
					<dim>8</dim>
					<dim>1</dim>
					<dim>1</dim>
				</port>
			</output>
		</layer>
		<layer id="85" name="bottleneck1_1/dim_inc/conv/fq_weights_1/Copy/out_low10787_const" type="Const" version="opset1">
			<data element_type="f16" offset="467" shape="1" size="2"/>
			<output>
				<port id="1" precision="FP16">
					<dim>1</dim>
				</port>
			</output>
		</layer>
		<layer id="86" name="bottleneck1_1/dim_inc/conv/fq_weights_1/Copy/out_high10788_const" type="Const" version="opset1">
			<data element_type="f16" offset="469" shape="1" size="2"/>
			<output>
				<port id="1" precision="FP16">
					<dim>1</dim>
				</port>
			</output>
		</layer>
		<layer id="87" name="42674271_const" type="Const" version="opset1">
			<data element_type="f16" offset="2305" shape="32,1,1,1" size="64"/>
			<output>
				<port id="1" precision="FP16">
					<dim>32</dim>
					<dim>1</dim>
					<dim>1</dim>
					<dim>1</dim>
				</port>
			</output>
		</layer>
		<layer id="88" name="42684272_const" type="Const" version="opset1">
			<data element_type="f16" offset="2369" shape="32,1,1,1" size="64"/>
			<output>
				<port id="1" precision="FP16">
					<dim>32</dim>
					<dim>1</dim>
					<dim>1</dim>
					<dim>1</dim>
				</port>
			</output>
		</layer>
		<layer id="89" name="bottleneck1_1/dim_inc/conv/fq_weights_1" type="FakeQuantize" version="opset1">
			<data levels="255"/>
			<input>
				<port id="0">
					<dim>32</dim>
					<dim>8</dim>
					<dim>1</dim>
					<dim>1</dim>
				</port>
				<port id="1">
					<dim>1</dim>
				</port>
				<port id="2">
					<dim>1</dim>
				</port>
				<port id="3">
					<dim>32</dim>
					<dim>1</dim>
					<dim>1</dim>
					<dim>1</dim>
				</port>
				<port id="4">
					<dim>32</dim>
					<dim>1</dim>
					<dim>1</dim>
					<dim>1</dim>
				</port>
			</input>
			<output>
				<port id="5" precision="FP16">
					<dim>32</dim>
					<dim>8</dim>
					<dim>1</dim>
					<dim>1</dim>
				</port>
			</output>
		</layer>
		<layer id="90" name="bottleneck1_1/dim_inc/conv" type="Convolution" version="opset1">
			<data dilations="1,1" output_padding="0,0" pads_begin="0,0" pads_end="0,0" strides="1,1"/>
			<input>
				<port id="0">
					<dim>1</dim>
					<dim>8</dim>
					<dim>256</dim>
					<dim>256</dim>
				</port>
				<port id="1">
					<dim>32</dim>
					<dim>8</dim>
					<dim>1</dim>
					<dim>1</dim>
				</port>
			</input>
			<output>
				<port id="2" precision="FP16">
					<dim>1</dim>
					<dim>32</dim>
					<dim>256</dim>
					<dim>256</dim>
				</port>
			</output>
		</layer>
		<layer id="91" name="data_add_2567925684/copy_const749_const" type="Const" version="opset1">
			<data element_type="f16" offset="2433" shape="1,32,1,1" size="64"/>
			<output>
				<port id="1" precision="FP16">
					<dim>1</dim>
					<dim>32</dim>
					<dim>1</dim>
					<dim>1</dim>
				</port>
			</output>
		</layer>
		<layer id="92" name="bottleneck1_1/dim_inc/bn/variance/Fused_Add_" type="Add" version="opset1">
			<input>
				<port id="0">
					<dim>1</dim>
					<dim>32</dim>
					<dim>256</dim>
					<dim>256</dim>
				</port>
				<port id="1">
					<dim>1</dim>
					<dim>32</dim>
					<dim>1</dim>
					<dim>1</dim>
				</port>
			</input>
			<output>
				<port id="2" precision="FP16">
					<dim>1</dim>
					<dim>32</dim>
					<dim>256</dim>
					<dim>256</dim>
				</port>
			</output>
		</layer>
		<layer id="93" name="23552359_const" type="Const" version="opset1">
			<data element_type="f16" offset="2497" shape="" size="2"/>
			<output>
				<port id="1" precision="FP16"/>
			</output>
		</layer>
		<layer id="94" name="23562360_const" type="Const" version="opset1">
			<data element_type="f16" offset="2499" shape="" size="2"/>
			<output>
				<port id="1" precision="FP16"/>
			</output>
		</layer>
		<layer id="95" name="23572361_const" type="Const" version="opset1">
			<data element_type="f16" offset="2497" shape="" size="2"/>
			<output>
				<port id="1" precision="FP16"/>
			</output>
		</layer>
		<layer id="96" name="23582362_const" type="Const" version="opset1">
			<data element_type="f16" offset="2499" shape="" size="2"/>
			<output>
				<port id="1" precision="FP16"/>
			</output>
		</layer>
		<layer id="97" name="bottleneck1_1/add/fq_input_1" type="FakeQuantize" version="opset1">
			<data levels="256"/>
			<input>
				<port id="0">
					<dim>1</dim>
					<dim>32</dim>
					<dim>256</dim>
					<dim>256</dim>
				</port>
				<port id="1"/>
				<port id="2"/>
				<port id="3"/>
				<port id="4"/>
			</input>
			<output>
				<port id="5" precision="FP16">
					<dim>1</dim>
					<dim>32</dim>
					<dim>256</dim>
					<dim>256</dim>
				</port>
			</output>
		</layer>
		<layer id="98" name="bottleneck1_1/add" type="Add" version="opset1">
			<input>
				<port id="0">
					<dim>1</dim>
					<dim>32</dim>
					<dim>256</dim>
					<dim>256</dim>
				</port>
				<port id="1">
					<dim>1</dim>
					<dim>32</dim>
					<dim>256</dim>
					<dim>256</dim>
				</port>
			</input>
			<output>
				<port id="2" precision="FP16">
					<dim>1</dim>
					<dim>32</dim>
					<dim>256</dim>
					<dim>256</dim>
				</port>
			</output>
		</layer>
		<layer id="99" name="bottleneck1_1/fn" type="Elu" version="opset1">
			<data alpha="1.0"/>
			<input>
				<port id="0">
					<dim>1</dim>
					<dim>32</dim>
					<dim>256</dim>
					<dim>256</dim>
				</port>
			</input>
			<output>
				<port id="1" precision="FP16">
					<dim>1</dim>
					<dim>32</dim>
					<dim>256</dim>
					<dim>256</dim>
				</port>
			</output>
		</layer>
		<layer id="100" name="37353739_const" type="Const" version="opset1">
			<data element_type="f16" offset="2501" shape="" size="2"/>
			<output>
				<port id="1" precision="FP16"/>
			</output>
		</layer>
		<layer id="101" name="37363740_const" type="Const" version="opset1">
			<data element_type="f16" offset="1547" shape="" size="2"/>
			<output>
				<port id="1" precision="FP16"/>
			</output>
		</layer>
		<layer id="102" name="37373741_const" type="Const" version="opset1">
			<data element_type="f16" offset="2501" shape="" size="2"/>
			<output>
				<port id="1" precision="FP16"/>
			</output>
		</layer>
		<layer id="103" name="37383742_const" type="Const" version="opset1">
			<data element_type="f16" offset="1547" shape="" size="2"/>
			<output>
				<port id="1" precision="FP16"/>
			</output>
		</layer>
		<layer id="104" name="bottleneck1_2/add/fq_input_0" type="FakeQuantize" version="opset1">
			<data levels="256"/>
			<input>
				<port id="0">
					<dim>1</dim>
					<dim>32</dim>
					<dim>256</dim>
					<dim>256</dim>
				</port>
				<port id="1"/>
				<port id="2"/>
				<port id="3"/>
				<port id="4"/>
			</input>
			<output>
				<port id="5" precision="FP16">
					<dim>1</dim>
					<dim>32</dim>
					<dim>256</dim>
					<dim>256</dim>
				</port>
			</output>
		</layer>
		<layer id="105" name="bottleneck1_2/dim_red/conv/fq_weights_1/Convert_to_float/Cast_012525_const" type="Const" version="opset1">
			<data element_type="u8" offset="2503" shape="8,32,1,1" size="256"/>
			<output>
				<port id="1" precision="U8">
					<dim>8</dim>
					<dim>32</dim>
					<dim>1</dim>
					<dim>1</dim>
				</port>
			</output>
		</layer>
		<layer id="106" name="bottleneck1_2/dim_red/conv/fq_weights_1/Convert_to_float" type="Convert" version="opset1">
			<data destination_type="f16"/>
			<input>
				<port id="0">
					<dim>8</dim>
					<dim>32</dim>
					<dim>1</dim>
					<dim>1</dim>
				</port>
			</input>
			<output>
				<port id="1" precision="FP16">
					<dim>8</dim>
					<dim>32</dim>
					<dim>1</dim>
					<dim>1</dim>
				</port>
			</output>
		</layer>
		<layer id="107" name="bottleneck1_2/dim_red/conv/fq_weights_1/Copy/out_low10387_const" type="Const" version="opset1">
			<data element_type="f16" offset="467" shape="1" size="2"/>
			<output>
				<port id="1" precision="FP16">
					<dim>1</dim>
				</port>
			</output>
		</layer>
		<layer id="108" name="bottleneck1_2/dim_red/conv/fq_weights_1/Copy/out_high10388_const" type="Const" version="opset1">
			<data element_type="f16" offset="469" shape="1" size="2"/>
			<output>
				<port id="1" precision="FP16">
					<dim>1</dim>
				</port>
			</output>
		</layer>
		<layer id="109" name="46074611_const" type="Const" version="opset1">
			<data element_type="f16" offset="2759" shape="8,1,1,1" size="16"/>
			<output>
				<port id="1" precision="FP16">
					<dim>8</dim>
					<dim>1</dim>
					<dim>1</dim>
					<dim>1</dim>
				</port>
			</output>
		</layer>
		<layer id="110" name="46084612_const" type="Const" version="opset1">
			<data element_type="f16" offset="2775" shape="8,1,1,1" size="16"/>
			<output>
				<port id="1" precision="FP16">
					<dim>8</dim>
					<dim>1</dim>
					<dim>1</dim>
					<dim>1</dim>
				</port>
			</output>
		</layer>
		<layer id="111" name="bottleneck1_2/dim_red/conv/fq_weights_1" type="FakeQuantize" version="opset1">
			<data levels="255"/>
			<input>
				<port id="0">
					<dim>8</dim>
					<dim>32</dim>
					<dim>1</dim>
					<dim>1</dim>
				</port>
				<port id="1">
					<dim>1</dim>
				</port>
				<port id="2">
					<dim>1</dim>
				</port>
				<port id="3">
					<dim>8</dim>
					<dim>1</dim>
					<dim>1</dim>
					<dim>1</dim>
				</port>
				<port id="4">
					<dim>8</dim>
					<dim>1</dim>
					<dim>1</dim>
					<dim>1</dim>
				</port>
			</input>
			<output>
				<port id="5" precision="FP16">
					<dim>8</dim>
					<dim>32</dim>
					<dim>1</dim>
					<dim>1</dim>
				</port>
			</output>
		</layer>
		<layer id="112" name="bottleneck1_2/dim_red/conv" type="Convolution" version="opset1">
			<data dilations="1,1" output_padding="0,0" pads_begin="0,0" pads_end="0,0" strides="1,1"/>
			<input>
				<port id="0">
					<dim>1</dim>
					<dim>32</dim>
					<dim>256</dim>
					<dim>256</dim>
				</port>
				<port id="1">
					<dim>8</dim>
					<dim>32</dim>
					<dim>1</dim>
					<dim>1</dim>
				</port>
			</input>
			<output>
				<port id="2" precision="FP16">
					<dim>1</dim>
					<dim>8</dim>
					<dim>256</dim>
					<dim>256</dim>
				</port>
			</output>
		</layer>
		<layer id="113" name="data_add_2568725692/copy_const755_const" type="Const" version="opset1">
			<data element_type="f16" offset="2791" shape="1,8,1,1" size="16"/>
			<output>
				<port id="1" precision="FP16">
					<dim>1</dim>
					<dim>8</dim>
					<dim>1</dim>
					<dim>1</dim>
				</port>
			</output>
		</layer>
		<layer id="114" name="bottleneck1_2/dim_red/bn/variance/Fused_Add_" type="Add" version="opset1">
			<input>
				<port id="0">
					<dim>1</dim>
					<dim>8</dim>
					<dim>256</dim>
					<dim>256</dim>
				</port>
				<port id="1">
					<dim>1</dim>
					<dim>8</dim>
					<dim>1</dim>
					<dim>1</dim>
				</port>
			</input>
			<output>
				<port id="2" precision="FP16">
					<dim>1</dim>
					<dim>8</dim>
					<dim>256</dim>
					<dim>256</dim>
				</port>
			</output>
		</layer>
		<layer id="115" name="bottleneck1_2/dim_red/fn" type="Elu" version="opset1">
			<data alpha="1.0"/>
			<input>
				<port id="0">
					<dim>1</dim>
					<dim>8</dim>
					<dim>256</dim>
					<dim>256</dim>
				</port>
			</input>
			<output>
				<port id="1" precision="FP16">
					<dim>1</dim>
					<dim>8</dim>
					<dim>256</dim>
					<dim>256</dim>
				</port>
			</output>
		</layer>
		<layer id="116" name="53855389_const" type="Const" version="opset1">
			<data element_type="f16" offset="2807" shape="1,8,1,1" size="16"/>
			<output>
				<port id="1" precision="FP16">
					<dim>1</dim>
					<dim>8</dim>
					<dim>1</dim>
					<dim>1</dim>
				</port>
			</output>
		</layer>
		<layer id="117" name="53865390_const" type="Const" version="opset1">
			<data element_type="f16" offset="2823" shape="1,8,1,1" size="16"/>
			<output>
				<port id="1" precision="FP16">
					<dim>1</dim>
					<dim>8</dim>
					<dim>1</dim>
					<dim>1</dim>
				</port>
			</output>
		</layer>
		<layer id="118" name="53875391_const" type="Const" version="opset1">
			<data element_type="f16" offset="2807" shape="1,8,1,1" size="16"/>
			<output>
				<port id="1" precision="FP16">
					<dim>1</dim>
					<dim>8</dim>
					<dim>1</dim>
					<dim>1</dim>
				</port>
			</output>
		</layer>
		<layer id="119" name="53885392_const" type="Const" version="opset1">
			<data element_type="f16" offset="2823" shape="1,8,1,1" size="16"/>
			<output>
				<port id="1" precision="FP16">
					<dim>1</dim>
					<dim>8</dim>
					<dim>1</dim>
					<dim>1</dim>
				</port>
			</output>
		</layer>
		<layer id="120" name="bottleneck1_2/inner/dw1/conv/fq_input_0" type="FakeQuantize" version="opset1">
			<data levels="256"/>
			<input>
				<port id="0">
					<dim>1</dim>
					<dim>8</dim>
					<dim>256</dim>
					<dim>256</dim>
				</port>
				<port id="1">
					<dim>1</dim>
					<dim>8</dim>
					<dim>1</dim>
					<dim>1</dim>
				</port>
				<port id="2">
					<dim>1</dim>
					<dim>8</dim>
					<dim>1</dim>
					<dim>1</dim>
				</port>
				<port id="3">
					<dim>1</dim>
					<dim>8</dim>
					<dim>1</dim>
					<dim>1</dim>
				</port>
				<port id="4">
					<dim>1</dim>
					<dim>8</dim>
					<dim>1</dim>
					<dim>1</dim>
				</port>
			</input>
			<output>
				<port id="5" precision="FP16">
					<dim>1</dim>
					<dim>8</dim>
					<dim>256</dim>
					<dim>256</dim>
				</port>
			</output>
		</layer>
		<layer id="121" name="bottleneck1_2/inner/dw1/conv/fq_weights_1/Convert_to_float/Cast_012621_const" type="Const" version="opset1">
			<data element_type="u8" offset="2839" shape="8,1,3,3" size="72"/>
			<output>
				<port id="1" precision="U8">
					<dim>8</dim>
					<dim>1</dim>
					<dim>3</dim>
					<dim>3</dim>
				</port>
			</output>
		</layer>
		<layer id="122" name="bottleneck1_2/inner/dw1/conv/fq_weights_1/Convert_to_float" type="Convert" version="opset1">
			<data destination_type="f16"/>
			<input>
				<port id="0">
					<dim>8</dim>
					<dim>1</dim>
					<dim>3</dim>
					<dim>3</dim>
				</port>
			</input>
			<output>
				<port id="1" precision="FP16">
					<dim>8</dim>
					<dim>1</dim>
					<dim>3</dim>
					<dim>3</dim>
				</port>
			</output>
		</layer>
		<layer id="123" name="bottleneck1_2/inner/dw1/conv/fq_weights_1/Copy/out_low10803_const" type="Const" version="opset1">
			<data element_type="f16" offset="467" shape="1" size="2"/>
			<output>
				<port id="1" precision="FP16">
					<dim>1</dim>
				</port>
			</output>
		</layer>
		<layer id="124" name="bottleneck1_2/inner/dw1/conv/fq_weights_1/Copy/out_high10804_const" type="Const" version="opset1">
			<data element_type="f16" offset="469" shape="1" size="2"/>
			<output>
				<port id="1" precision="FP16">
					<dim>1</dim>
				</port>
			</output>
		</layer>
		<layer id="125" name="53975401_const" type="Const" version="opset1">
			<data element_type="f16" offset="2911" shape="8,1,1,1" size="16"/>
			<output>
				<port id="1" precision="FP16">
					<dim>8</dim>
					<dim>1</dim>
					<dim>1</dim>
					<dim>1</dim>
				</port>
			</output>
		</layer>
		<layer id="126" name="53985402_const" type="Const" version="opset1">
			<data element_type="f16" offset="2927" shape="8,1,1,1" size="16"/>
			<output>
				<port id="1" precision="FP16">
					<dim>8</dim>
					<dim>1</dim>
					<dim>1</dim>
					<dim>1</dim>
				</port>
			</output>
		</layer>
		<layer id="127" name="bottleneck1_2/inner/dw1/conv/fq_weights_1" type="FakeQuantize" version="opset1">
			<data levels="255"/>
			<input>
				<port id="0">
					<dim>8</dim>
					<dim>1</dim>
					<dim>3</dim>
					<dim>3</dim>
				</port>
				<port id="1">
					<dim>1</dim>
				</port>
				<port id="2">
					<dim>1</dim>
				</port>
				<port id="3">
					<dim>8</dim>
					<dim>1</dim>
					<dim>1</dim>
					<dim>1</dim>
				</port>
				<port id="4">
					<dim>8</dim>
					<dim>1</dim>
					<dim>1</dim>
					<dim>1</dim>
				</port>
			</input>
			<output>
				<port id="5" precision="FP16">
					<dim>8</dim>
					<dim>1</dim>
					<dim>3</dim>
					<dim>3</dim>
				</port>
			</output>
		</layer>
		<layer id="128" name="14180/value14182_const" type="Const" version="opset1">
			<data element_type="i64" offset="1989" shape="5" size="40"/>
			<output>
				<port id="1" precision="I64">
					<dim>5</dim>
				</port>
			</output>
		</layer>
		<layer id="129" name="14180" type="Reshape" version="opset1">
			<data special_zero="True"/>
			<input>
				<port id="0">
					<dim>8</dim>
					<dim>1</dim>
					<dim>3</dim>
					<dim>3</dim>
				</port>
				<port id="1">
					<dim>5</dim>
				</port>
			</input>
			<output>
				<port id="2" precision="FP16">
					<dim>8</dim>
					<dim>1</dim>
					<dim>1</dim>
					<dim>3</dim>
					<dim>3</dim>
				</port>
			</output>
		</layer>
		<layer id="130" name="bottleneck1_2/inner/dw1/conv" type="GroupConvolution" version="opset1">
			<data dilations="1,1" output_padding="0,0" pads_begin="1,1" pads_end="1,1" strides="1,1"/>
			<input>
				<port id="0">
					<dim>1</dim>
					<dim>8</dim>
					<dim>256</dim>
					<dim>256</dim>
				</port>
				<port id="1">
					<dim>8</dim>
					<dim>1</dim>
					<dim>1</dim>
					<dim>3</dim>
					<dim>3</dim>
				</port>
			</input>
			<output>
				<port id="2" precision="FP16">
					<dim>1</dim>
					<dim>8</dim>
					<dim>256</dim>
					<dim>256</dim>
				</port>
			</output>
		</layer>
		<layer id="131" name="data_add_2569525700/copy_const760_const" type="Const" version="opset1">
			<data element_type="f16" offset="2943" shape="1,8,1,1" size="16"/>
			<output>
				<port id="1" precision="FP16">
					<dim>1</dim>
					<dim>8</dim>
					<dim>1</dim>
					<dim>1</dim>
				</port>
			</output>
		</layer>
		<layer id="132" name="bottleneck1_2/inner/dw1/bn/variance/Fused_Add_" type="Add" version="opset1">
			<input>
				<port id="0">
					<dim>1</dim>
					<dim>8</dim>
					<dim>256</dim>
					<dim>256</dim>
				</port>
				<port id="1">
					<dim>1</dim>
					<dim>8</dim>
					<dim>1</dim>
					<dim>1</dim>
				</port>
			</input>
			<output>
				<port id="2" precision="FP16">
					<dim>1</dim>
					<dim>8</dim>
					<dim>256</dim>
					<dim>256</dim>
				</port>
			</output>
		</layer>
		<layer id="133" name="bottleneck1_2/inner/dw1/fn" type="Elu" version="opset1">
			<data alpha="1.0"/>
			<input>
				<port id="0">
					<dim>1</dim>
					<dim>8</dim>
					<dim>256</dim>
					<dim>256</dim>
				</port>
			</input>
			<output>
				<port id="1" precision="FP16">
					<dim>1</dim>
					<dim>8</dim>
					<dim>256</dim>
					<dim>256</dim>
				</port>
			</output>
		</layer>
		<layer id="134" name="48754879_const" type="Const" version="opset1">
			<data element_type="f16" offset="2959" shape="" size="2"/>
			<output>
				<port id="1" precision="FP16"/>
			</output>
		</layer>
		<layer id="135" name="48764880_const" type="Const" version="opset1">
			<data element_type="f16" offset="2961" shape="" size="2"/>
			<output>
				<port id="1" precision="FP16"/>
			</output>
		</layer>
		<layer id="136" name="48774881_const" type="Const" version="opset1">
			<data element_type="f16" offset="2959" shape="" size="2"/>
			<output>
				<port id="1" precision="FP16"/>
			</output>
		</layer>
		<layer id="137" name="48784882_const" type="Const" version="opset1">
			<data element_type="f16" offset="2961" shape="" size="2"/>
			<output>
				<port id="1" precision="FP16"/>
			</output>
		</layer>
		<layer id="138" name="bottleneck1_2/dim_inc/conv/fq_input_0" type="FakeQuantize" version="opset1">
			<data levels="256"/>
			<input>
				<port id="0">
					<dim>1</dim>
					<dim>8</dim>
					<dim>256</dim>
					<dim>256</dim>
				</port>
				<port id="1"/>
				<port id="2"/>
				<port id="3"/>
				<port id="4"/>
			</input>
			<output>
				<port id="5" precision="FP16">
					<dim>1</dim>
					<dim>8</dim>
					<dim>256</dim>
					<dim>256</dim>
				</port>
			</output>
		</layer>
		<layer id="139" name="bottleneck1_2/dim_inc/conv/fq_weights_1/Convert_to_float/Cast_012581_const" type="Const" version="opset1">
			<data element_type="u8" offset="2963" shape="32,8,1,1" size="256"/>
			<output>
				<port id="1" precision="U8">
					<dim>32</dim>
					<dim>8</dim>
					<dim>1</dim>
					<dim>1</dim>
				</port>
			</output>
		</layer>
		<layer id="140" name="bottleneck1_2/dim_inc/conv/fq_weights_1/Convert_to_float" type="Convert" version="opset1">
			<data destination_type="f16"/>
			<input>
				<port id="0">
					<dim>32</dim>
					<dim>8</dim>
					<dim>1</dim>
					<dim>1</dim>
				</port>
			</input>
			<output>
				<port id="1" precision="FP16">
					<dim>32</dim>
					<dim>8</dim>
					<dim>1</dim>
					<dim>1</dim>
				</port>
			</output>
		</layer>
		<layer id="141" name="bottleneck1_2/dim_inc/conv/fq_weights_1/Copy/out_low10875_const" type="Const" version="opset1">
			<data element_type="f16" offset="467" shape="1" size="2"/>
			<output>
				<port id="1" precision="FP16">
					<dim>1</dim>
				</port>
			</output>
		</layer>
		<layer id="142" name="bottleneck1_2/dim_inc/conv/fq_weights_1/Copy/out_high10876_const" type="Const" version="opset1">
			<data element_type="f16" offset="469" shape="1" size="2"/>
			<output>
				<port id="1" precision="FP16">
					<dim>1</dim>
				</port>
			</output>
		</layer>
		<layer id="143" name="48874891_const" type="Const" version="opset1">
			<data element_type="f16" offset="3219" shape="32,1,1,1" size="64"/>
			<output>
				<port id="1" precision="FP16">
					<dim>32</dim>
					<dim>1</dim>
					<dim>1</dim>
					<dim>1</dim>
				</port>
			</output>
		</layer>
		<layer id="144" name="48884892_const" type="Const" version="opset1">
			<data element_type="f16" offset="3283" shape="32,1,1,1" size="64"/>
			<output>
				<port id="1" precision="FP16">
					<dim>32</dim>
					<dim>1</dim>
					<dim>1</dim>
					<dim>1</dim>
				</port>
			</output>
		</layer>
		<layer id="145" name="bottleneck1_2/dim_inc/conv/fq_weights_1" type="FakeQuantize" version="opset1">
			<data levels="255"/>
			<input>
				<port id="0">
					<dim>32</dim>
					<dim>8</dim>
					<dim>1</dim>
					<dim>1</dim>
				</port>
				<port id="1">
					<dim>1</dim>
				</port>
				<port id="2">
					<dim>1</dim>
				</port>
				<port id="3">
					<dim>32</dim>
					<dim>1</dim>
					<dim>1</dim>
					<dim>1</dim>
				</port>
				<port id="4">
					<dim>32</dim>
					<dim>1</dim>
					<dim>1</dim>
					<dim>1</dim>
				</port>
			</input>
			<output>
				<port id="5" precision="FP16">
					<dim>32</dim>
					<dim>8</dim>
					<dim>1</dim>
					<dim>1</dim>
				</port>
			</output>
		</layer>
		<layer id="146" name="bottleneck1_2/dim_inc/conv" type="Convolution" version="opset1">
			<data dilations="1,1" output_padding="0,0" pads_begin="0,0" pads_end="0,0" strides="1,1"/>
			<input>
				<port id="0">
					<dim>1</dim>
					<dim>8</dim>
					<dim>256</dim>
					<dim>256</dim>
				</port>
				<port id="1">
					<dim>32</dim>
					<dim>8</dim>
					<dim>1</dim>
					<dim>1</dim>
				</port>
			</input>
			<output>
				<port id="2" precision="FP16">
					<dim>1</dim>
					<dim>32</dim>
					<dim>256</dim>
					<dim>256</dim>
				</port>
			</output>
		</layer>
		<layer id="147" name="data_add_2570325708/copy_const765_const" type="Const" version="opset1">
			<data element_type="f16" offset="3347" shape="1,32,1,1" size="64"/>
			<output>
				<port id="1" precision="FP16">
					<dim>1</dim>
					<dim>32</dim>
					<dim>1</dim>
					<dim>1</dim>
				</port>
			</output>
		</layer>
		<layer id="148" name="bottleneck1_2/dim_inc/bn/variance/Fused_Add_" type="Add" version="opset1">
			<input>
				<port id="0">
					<dim>1</dim>
					<dim>32</dim>
					<dim>256</dim>
					<dim>256</dim>
				</port>
				<port id="1">
					<dim>1</dim>
					<dim>32</dim>
					<dim>1</dim>
					<dim>1</dim>
				</port>
			</input>
			<output>
				<port id="2" precision="FP16">
					<dim>1</dim>
					<dim>32</dim>
					<dim>256</dim>
					<dim>256</dim>
				</port>
			</output>
		</layer>
		<layer id="149" name="37453749_const" type="Const" version="opset1">
			<data element_type="f16" offset="3411" shape="" size="2"/>
			<output>
				<port id="1" precision="FP16"/>
			</output>
		</layer>
		<layer id="150" name="37463750_const" type="Const" version="opset1">
			<data element_type="f16" offset="3413" shape="" size="2"/>
			<output>
				<port id="1" precision="FP16"/>
			</output>
		</layer>
		<layer id="151" name="37473751_const" type="Const" version="opset1">
			<data element_type="f16" offset="3411" shape="" size="2"/>
			<output>
				<port id="1" precision="FP16"/>
			</output>
		</layer>
		<layer id="152" name="37483752_const" type="Const" version="opset1">
			<data element_type="f16" offset="3413" shape="" size="2"/>
			<output>
				<port id="1" precision="FP16"/>
			</output>
		</layer>
		<layer id="153" name="bottleneck1_2/add/fq_input_1" type="FakeQuantize" version="opset1">
			<data levels="256"/>
			<input>
				<port id="0">
					<dim>1</dim>
					<dim>32</dim>
					<dim>256</dim>
					<dim>256</dim>
				</port>
				<port id="1"/>
				<port id="2"/>
				<port id="3"/>
				<port id="4"/>
			</input>
			<output>
				<port id="5" precision="FP16">
					<dim>1</dim>
					<dim>32</dim>
					<dim>256</dim>
					<dim>256</dim>
				</port>
			</output>
		</layer>
		<layer id="154" name="bottleneck1_2/add" type="Add" version="opset1">
			<input>
				<port id="0">
					<dim>1</dim>
					<dim>32</dim>
					<dim>256</dim>
					<dim>256</dim>
				</port>
				<port id="1">
					<dim>1</dim>
					<dim>32</dim>
					<dim>256</dim>
					<dim>256</dim>
				</port>
			</input>
			<output>
				<port id="2" precision="FP16">
					<dim>1</dim>
					<dim>32</dim>
					<dim>256</dim>
					<dim>256</dim>
				</port>
			</output>
		</layer>
		<layer id="155" name="bottleneck1_2/fn" type="Elu" version="opset1">
			<data alpha="1.0"/>
			<input>
				<port id="0">
					<dim>1</dim>
					<dim>32</dim>
					<dim>256</dim>
					<dim>256</dim>
				</port>
			</input>
			<output>
				<port id="1" precision="FP16">
					<dim>1</dim>
					<dim>32</dim>
					<dim>256</dim>
					<dim>256</dim>
				</port>
			</output>
		</layer>
		<layer id="156" name="49354939_const" type="Const" version="opset1">
			<data element_type="f16" offset="3415" shape="" size="2"/>
			<output>
				<port id="1" precision="FP16"/>
			</output>
		</layer>
		<layer id="157" name="49364940_const" type="Const" version="opset1">
			<data element_type="f16" offset="3417" shape="" size="2"/>
			<output>
				<port id="1" precision="FP16"/>
			</output>
		</layer>
		<layer id="158" name="49374941_const" type="Const" version="opset1">
			<data element_type="f16" offset="3415" shape="" size="2"/>
			<output>
				<port id="1" precision="FP16"/>
			</output>
		</layer>
		<layer id="159" name="49384942_const" type="Const" version="opset1">
			<data element_type="f16" offset="3417" shape="" size="2"/>
			<output>
				<port id="1" precision="FP16"/>
			</output>
		</layer>
		<layer id="160" name="bottleneck1_3/add/fq_input_0" type="FakeQuantize" version="opset1">
			<data levels="256"/>
			<input>
				<port id="0">
					<dim>1</dim>
					<dim>32</dim>
					<dim>256</dim>
					<dim>256</dim>
				</port>
				<port id="1"/>
				<port id="2"/>
				<port id="3"/>
				<port id="4"/>
			</input>
			<output>
				<port id="5" precision="FP16">
					<dim>1</dim>
					<dim>32</dim>
					<dim>256</dim>
					<dim>256</dim>
				</port>
			</output>
		</layer>
		<layer id="161" name="bottleneck1_3/dim_red/conv/fq_weights_1/Convert_to_float/Cast_012577_const" type="Const" version="opset1">
			<data element_type="u8" offset="3419" shape="8,32,1,1" size="256"/>
			<output>
				<port id="1" precision="U8">
					<dim>8</dim>
					<dim>32</dim>
					<dim>1</dim>
					<dim>1</dim>
				</port>
			</output>
		</layer>
		<layer id="162" name="bottleneck1_3/dim_red/conv/fq_weights_1/Convert_to_float" type="Convert" version="opset1">
			<data destination_type="f16"/>
			<input>
				<port id="0">
					<dim>8</dim>
					<dim>32</dim>
					<dim>1</dim>
					<dim>1</dim>
				</port>
			</input>
			<output>
				<port id="1" precision="FP16">
					<dim>8</dim>
					<dim>32</dim>
					<dim>1</dim>
					<dim>1</dim>
				</port>
			</output>
		</layer>
		<layer id="163" name="bottleneck1_3/dim_red/conv/fq_weights_1/Copy/out_low10907_const" type="Const" version="opset1">
			<data element_type="f16" offset="467" shape="1" size="2"/>
			<output>
				<port id="1" precision="FP16">
					<dim>1</dim>
				</port>
			</output>
		</layer>
		<layer id="164" name="bottleneck1_3/dim_red/conv/fq_weights_1/Copy/out_high10908_const" type="Const" version="opset1">
			<data element_type="f16" offset="469" shape="1" size="2"/>
			<output>
				<port id="1" precision="FP16">
					<dim>1</dim>
				</port>
			</output>
		</layer>
		<layer id="165" name="33873391_const" type="Const" version="opset1">
			<data element_type="f16" offset="3675" shape="8,1,1,1" size="16"/>
			<output>
				<port id="1" precision="FP16">
					<dim>8</dim>
					<dim>1</dim>
					<dim>1</dim>
					<dim>1</dim>
				</port>
			</output>
		</layer>
		<layer id="166" name="33883392_const" type="Const" version="opset1">
			<data element_type="f16" offset="3691" shape="8,1,1,1" size="16"/>
			<output>
				<port id="1" precision="FP16">
					<dim>8</dim>
					<dim>1</dim>
					<dim>1</dim>
					<dim>1</dim>
				</port>
			</output>
		</layer>
		<layer id="167" name="bottleneck1_3/dim_red/conv/fq_weights_1" type="FakeQuantize" version="opset1">
			<data levels="255"/>
			<input>
				<port id="0">
					<dim>8</dim>
					<dim>32</dim>
					<dim>1</dim>
					<dim>1</dim>
				</port>
				<port id="1">
					<dim>1</dim>
				</port>
				<port id="2">
					<dim>1</dim>
				</port>
				<port id="3">
					<dim>8</dim>
					<dim>1</dim>
					<dim>1</dim>
					<dim>1</dim>
				</port>
				<port id="4">
					<dim>8</dim>
					<dim>1</dim>
					<dim>1</dim>
					<dim>1</dim>
				</port>
			</input>
			<output>
				<port id="5" precision="FP16">
					<dim>8</dim>
					<dim>32</dim>
					<dim>1</dim>
					<dim>1</dim>
				</port>
			</output>
		</layer>
		<layer id="168" name="bottleneck1_3/dim_red/conv" type="Convolution" version="opset1">
			<data dilations="1,1" output_padding="0,0" pads_begin="0,0" pads_end="0,0" strides="1,1"/>
			<input>
				<port id="0">
					<dim>1</dim>
					<dim>32</dim>
					<dim>256</dim>
					<dim>256</dim>
				</port>
				<port id="1">
					<dim>8</dim>
					<dim>32</dim>
					<dim>1</dim>
					<dim>1</dim>
				</port>
			</input>
			<output>
				<port id="2" precision="FP16">
					<dim>1</dim>
					<dim>8</dim>
					<dim>256</dim>
					<dim>256</dim>
				</port>
			</output>
		</layer>
		<layer id="169" name="data_add_2571125716/copy_const771_const" type="Const" version="opset1">
			<data element_type="f16" offset="3707" shape="1,8,1,1" size="16"/>
			<output>
				<port id="1" precision="FP16">
					<dim>1</dim>
					<dim>8</dim>
					<dim>1</dim>
					<dim>1</dim>
				</port>
			</output>
		</layer>
		<layer id="170" name="bottleneck1_3/dim_red/bn/variance/Fused_Add_" type="Add" version="opset1">
			<input>
				<port id="0">
					<dim>1</dim>
					<dim>8</dim>
					<dim>256</dim>
					<dim>256</dim>
				</port>
				<port id="1">
					<dim>1</dim>
					<dim>8</dim>
					<dim>1</dim>
					<dim>1</dim>
				</port>
			</input>
			<output>
				<port id="2" precision="FP16">
					<dim>1</dim>
					<dim>8</dim>
					<dim>256</dim>
					<dim>256</dim>
				</port>
			</output>
		</layer>
		<layer id="171" name="bottleneck1_3/dim_red/fn" type="Elu" version="opset1">
			<data alpha="1.0"/>
			<input>
				<port id="0">
					<dim>1</dim>
					<dim>8</dim>
					<dim>256</dim>
					<dim>256</dim>
				</port>
			</input>
			<output>
				<port id="1" precision="FP16">
					<dim>1</dim>
					<dim>8</dim>
					<dim>256</dim>
					<dim>256</dim>
				</port>
			</output>
		</layer>
		<layer id="172" name="30753079_const" type="Const" version="opset1">
			<data element_type="f16" offset="3723" shape="1,8,1,1" size="16"/>
			<output>
				<port id="1" precision="FP16">
					<dim>1</dim>
					<dim>8</dim>
					<dim>1</dim>
					<dim>1</dim>
				</port>
			</output>
		</layer>
		<layer id="173" name="30763080_const" type="Const" version="opset1">
			<data element_type="f16" offset="3739" shape="1,8,1,1" size="16"/>
			<output>
				<port id="1" precision="FP16">
					<dim>1</dim>
					<dim>8</dim>
					<dim>1</dim>
					<dim>1</dim>
				</port>
			</output>
		</layer>
		<layer id="174" name="30773081_const" type="Const" version="opset1">
			<data element_type="f16" offset="3723" shape="1,8,1,1" size="16"/>
			<output>
				<port id="1" precision="FP16">
					<dim>1</dim>
					<dim>8</dim>
					<dim>1</dim>
					<dim>1</dim>
				</port>
			</output>
		</layer>
		<layer id="175" name="30783082_const" type="Const" version="opset1">
			<data element_type="f16" offset="3739" shape="1,8,1,1" size="16"/>
			<output>
				<port id="1" precision="FP16">
					<dim>1</dim>
					<dim>8</dim>
					<dim>1</dim>
					<dim>1</dim>
				</port>
			</output>
		</layer>
		<layer id="176" name="bottleneck1_3/inner/dw1/conv/fq_input_0" type="FakeQuantize" version="opset1">
			<data levels="256"/>
			<input>
				<port id="0">
					<dim>1</dim>
					<dim>8</dim>
					<dim>256</dim>
					<dim>256</dim>
				</port>
				<port id="1">
					<dim>1</dim>
					<dim>8</dim>
					<dim>1</dim>
					<dim>1</dim>
				</port>
				<port id="2">
					<dim>1</dim>
					<dim>8</dim>
					<dim>1</dim>
					<dim>1</dim>
				</port>
				<port id="3">
					<dim>1</dim>
					<dim>8</dim>
					<dim>1</dim>
					<dim>1</dim>
				</port>
				<port id="4">
					<dim>1</dim>
					<dim>8</dim>
					<dim>1</dim>
					<dim>1</dim>
				</port>
			</input>
			<output>
				<port id="5" precision="FP16">
					<dim>1</dim>
					<dim>8</dim>
					<dim>256</dim>
					<dim>256</dim>
				</port>
			</output>
		</layer>
		<layer id="177" name="bottleneck1_3/inner/dw1/conv/fq_weights_1/Convert_to_float/Cast_012463_const" type="Const" version="opset1">
			<data element_type="u8" offset="3755" shape="8,1,3,3" size="72"/>
			<output>
				<port id="1" precision="U8">
					<dim>8</dim>
					<dim>1</dim>
					<dim>3</dim>
					<dim>3</dim>
				</port>
			</output>
		</layer>
		<layer id="178" name="bottleneck1_3/inner/dw1/conv/fq_weights_1/Convert_to_float" type="Convert" version="opset1">
			<data destination_type="f16"/>
			<input>
				<port id="0">
					<dim>8</dim>
					<dim>1</dim>
					<dim>3</dim>
					<dim>3</dim>
				</port>
			</input>
			<output>
				<port id="1" precision="FP16">
					<dim>8</dim>
					<dim>1</dim>
					<dim>3</dim>
					<dim>3</dim>
				</port>
			</output>
		</layer>
		<layer id="179" name="bottleneck1_3/inner/dw1/conv/fq_weights_1/Copy/out_low10171_const" type="Const" version="opset1">
			<data element_type="f16" offset="467" shape="1" size="2"/>
			<output>
				<port id="1" precision="FP16">
					<dim>1</dim>
				</port>
			</output>
		</layer>
		<layer id="180" name="bottleneck1_3/inner/dw1/conv/fq_weights_1/Copy/out_high10172_const" type="Const" version="opset1">
			<data element_type="f16" offset="469" shape="1" size="2"/>
			<output>
				<port id="1" precision="FP16">
					<dim>1</dim>
				</port>
			</output>
		</layer>
		<layer id="181" name="30873091_const" type="Const" version="opset1">
			<data element_type="f16" offset="3827" shape="8,1,1,1" size="16"/>
			<output>
				<port id="1" precision="FP16">
					<dim>8</dim>
					<dim>1</dim>
					<dim>1</dim>
					<dim>1</dim>
				</port>
			</output>
		</layer>
		<layer id="182" name="30883092_const" type="Const" version="opset1">
			<data element_type="f16" offset="3843" shape="8,1,1,1" size="16"/>
			<output>
				<port id="1" precision="FP16">
					<dim>8</dim>
					<dim>1</dim>
					<dim>1</dim>
					<dim>1</dim>
				</port>
			</output>
		</layer>
		<layer id="183" name="bottleneck1_3/inner/dw1/conv/fq_weights_1" type="FakeQuantize" version="opset1">
			<data levels="255"/>
			<input>
				<port id="0">
					<dim>8</dim>
					<dim>1</dim>
					<dim>3</dim>
					<dim>3</dim>
				</port>
				<port id="1">
					<dim>1</dim>
				</port>
				<port id="2">
					<dim>1</dim>
				</port>
				<port id="3">
					<dim>8</dim>
					<dim>1</dim>
					<dim>1</dim>
					<dim>1</dim>
				</port>
				<port id="4">
					<dim>8</dim>
					<dim>1</dim>
					<dim>1</dim>
					<dim>1</dim>
				</port>
			</input>
			<output>
				<port id="5" precision="FP16">
					<dim>8</dim>
					<dim>1</dim>
					<dim>3</dim>
					<dim>3</dim>
				</port>
			</output>
		</layer>
		<layer id="184" name="14076/value14078_const" type="Const" version="opset1">
			<data element_type="i64" offset="1989" shape="5" size="40"/>
			<output>
				<port id="1" precision="I64">
					<dim>5</dim>
				</port>
			</output>
		</layer>
		<layer id="185" name="14076" type="Reshape" version="opset1">
			<data special_zero="True"/>
			<input>
				<port id="0">
					<dim>8</dim>
					<dim>1</dim>
					<dim>3</dim>
					<dim>3</dim>
				</port>
				<port id="1">
					<dim>5</dim>
				</port>
			</input>
			<output>
				<port id="2" precision="FP16">
					<dim>8</dim>
					<dim>1</dim>
					<dim>1</dim>
					<dim>3</dim>
					<dim>3</dim>
				</port>
			</output>
		</layer>
		<layer id="186" name="bottleneck1_3/inner/dw1/conv" type="GroupConvolution" version="opset1">
			<data dilations="1,1" output_padding="0,0" pads_begin="1,1" pads_end="1,1" strides="1,1"/>
			<input>
				<port id="0">
					<dim>1</dim>
					<dim>8</dim>
					<dim>256</dim>
					<dim>256</dim>
				</port>
				<port id="1">
					<dim>8</dim>
					<dim>1</dim>
					<dim>1</dim>
					<dim>3</dim>
					<dim>3</dim>
				</port>
			</input>
			<output>
				<port id="2" precision="FP16">
					<dim>1</dim>
					<dim>8</dim>
					<dim>256</dim>
					<dim>256</dim>
				</port>
			</output>
		</layer>
		<layer id="187" name="data_add_2571925724/copy_const776_const" type="Const" version="opset1">
			<data element_type="f16" offset="3859" shape="1,8,1,1" size="16"/>
			<output>
				<port id="1" precision="FP16">
					<dim>1</dim>
					<dim>8</dim>
					<dim>1</dim>
					<dim>1</dim>
				</port>
			</output>
		</layer>
		<layer id="188" name="bottleneck1_3/inner/dw1/bn/variance/Fused_Add_" type="Add" version="opset1">
			<input>
				<port id="0">
					<dim>1</dim>
					<dim>8</dim>
					<dim>256</dim>
					<dim>256</dim>
				</port>
				<port id="1">
					<dim>1</dim>
					<dim>8</dim>
					<dim>1</dim>
					<dim>1</dim>
				</port>
			</input>
			<output>
				<port id="2" precision="FP16">
					<dim>1</dim>
					<dim>8</dim>
					<dim>256</dim>
					<dim>256</dim>
				</port>
			</output>
		</layer>
		<layer id="189" name="bottleneck1_3/inner/dw1/fn" type="Elu" version="opset1">
			<data alpha="1.0"/>
			<input>
				<port id="0">
					<dim>1</dim>
					<dim>8</dim>
					<dim>256</dim>
					<dim>256</dim>
				</port>
			</input>
			<output>
				<port id="1" precision="FP16">
					<dim>1</dim>
					<dim>8</dim>
					<dim>256</dim>
					<dim>256</dim>
				</port>
			</output>
		</layer>
		<layer id="190" name="40954099_const" type="Const" version="opset1">
			<data element_type="f16" offset="3875" shape="" size="2"/>
			<output>
				<port id="1" precision="FP16"/>
			</output>
		</layer>
		<layer id="191" name="40964100_const" type="Const" version="opset1">
			<data element_type="f16" offset="3877" shape="" size="2"/>
			<output>
				<port id="1" precision="FP16"/>
			</output>
		</layer>
		<layer id="192" name="40974101_const" type="Const" version="opset1">
			<data element_type="f16" offset="3875" shape="" size="2"/>
			<output>
				<port id="1" precision="FP16"/>
			</output>
		</layer>
		<layer id="193" name="40984102_const" type="Const" version="opset1">
			<data element_type="f16" offset="3877" shape="" size="2"/>
			<output>
				<port id="1" precision="FP16"/>
			</output>
		</layer>
		<layer id="194" name="bottleneck1_3/dim_inc/conv/fq_input_0" type="FakeQuantize" version="opset1">
			<data levels="256"/>
			<input>
				<port id="0">
					<dim>1</dim>
					<dim>8</dim>
					<dim>256</dim>
					<dim>256</dim>
				</port>
				<port id="1"/>
				<port id="2"/>
				<port id="3"/>
				<port id="4"/>
			</input>
			<output>
				<port id="5" precision="FP16">
					<dim>1</dim>
					<dim>8</dim>
					<dim>256</dim>
					<dim>256</dim>
				</port>
			</output>
		</layer>
		<layer id="195" name="bottleneck1_3/dim_inc/conv/fq_weights_1/Convert_to_float/Cast_012459_const" type="Const" version="opset1">
			<data element_type="u8" offset="3879" shape="32,8,1,1" size="256"/>
			<output>
				<port id="1" precision="U8">
					<dim>32</dim>
					<dim>8</dim>
					<dim>1</dim>
					<dim>1</dim>
				</port>
			</output>
		</layer>
		<layer id="196" name="bottleneck1_3/dim_inc/conv/fq_weights_1/Convert_to_float" type="Convert" version="opset1">
			<data destination_type="f16"/>
			<input>
				<port id="0">
					<dim>32</dim>
					<dim>8</dim>
					<dim>1</dim>
					<dim>1</dim>
				</port>
			</input>
			<output>
				<port id="1" precision="FP16">
					<dim>32</dim>
					<dim>8</dim>
					<dim>1</dim>
					<dim>1</dim>
				</port>
			</output>
		</layer>
		<layer id="197" name="bottleneck1_3/dim_inc/conv/fq_weights_1/Copy/out_low10059_const" type="Const" version="opset1">
			<data element_type="f16" offset="467" shape="1" size="2"/>
			<output>
				<port id="1" precision="FP16">
					<dim>1</dim>
				</port>
			</output>
		</layer>
		<layer id="198" name="bottleneck1_3/dim_inc/conv/fq_weights_1/Copy/out_high10060_const" type="Const" version="opset1">
			<data element_type="f16" offset="469" shape="1" size="2"/>
			<output>
				<port id="1" precision="FP16">
					<dim>1</dim>
				</port>
			</output>
		</layer>
		<layer id="199" name="41074111_const" type="Const" version="opset1">
			<data element_type="f16" offset="4135" shape="32,1,1,1" size="64"/>
			<output>
				<port id="1" precision="FP16">
					<dim>32</dim>
					<dim>1</dim>
					<dim>1</dim>
					<dim>1</dim>
				</port>
			</output>
		</layer>
		<layer id="200" name="41084112_const" type="Const" version="opset1">
			<data element_type="f16" offset="4199" shape="32,1,1,1" size="64"/>
			<output>
				<port id="1" precision="FP16">
					<dim>32</dim>
					<dim>1</dim>
					<dim>1</dim>
					<dim>1</dim>
				</port>
			</output>
		</layer>
		<layer id="201" name="bottleneck1_3/dim_inc/conv/fq_weights_1" type="FakeQuantize" version="opset1">
			<data levels="255"/>
			<input>
				<port id="0">
					<dim>32</dim>
					<dim>8</dim>
					<dim>1</dim>
					<dim>1</dim>
				</port>
				<port id="1">
					<dim>1</dim>
				</port>
				<port id="2">
					<dim>1</dim>
				</port>
				<port id="3">
					<dim>32</dim>
					<dim>1</dim>
					<dim>1</dim>
					<dim>1</dim>
				</port>
				<port id="4">
					<dim>32</dim>
					<dim>1</dim>
					<dim>1</dim>
					<dim>1</dim>
				</port>
			</input>
			<output>
				<port id="5" precision="FP16">
					<dim>32</dim>
					<dim>8</dim>
					<dim>1</dim>
					<dim>1</dim>
				</port>
			</output>
		</layer>
		<layer id="202" name="bottleneck1_3/dim_inc/conv" type="Convolution" version="opset1">
			<data dilations="1,1" output_padding="0,0" pads_begin="0,0" pads_end="0,0" strides="1,1"/>
			<input>
				<port id="0">
					<dim>1</dim>
					<dim>8</dim>
					<dim>256</dim>
					<dim>256</dim>
				</port>
				<port id="1">
					<dim>32</dim>
					<dim>8</dim>
					<dim>1</dim>
					<dim>1</dim>
				</port>
			</input>
			<output>
				<port id="2" precision="FP16">
					<dim>1</dim>
					<dim>32</dim>
					<dim>256</dim>
					<dim>256</dim>
				</port>
			</output>
		</layer>
		<layer id="203" name="data_add_2572725732/copy_const781_const" type="Const" version="opset1">
			<data element_type="f16" offset="4263" shape="1,32,1,1" size="64"/>
			<output>
				<port id="1" precision="FP16">
					<dim>1</dim>
					<dim>32</dim>
					<dim>1</dim>
					<dim>1</dim>
				</port>
			</output>
		</layer>
		<layer id="204" name="bottleneck1_3/dim_inc/bn/variance/Fused_Add_" type="Add" version="opset1">
			<input>
				<port id="0">
					<dim>1</dim>
					<dim>32</dim>
					<dim>256</dim>
					<dim>256</dim>
				</port>
				<port id="1">
					<dim>1</dim>
					<dim>32</dim>
					<dim>1</dim>
					<dim>1</dim>
				</port>
			</input>
			<output>
				<port id="2" precision="FP16">
					<dim>1</dim>
					<dim>32</dim>
					<dim>256</dim>
					<dim>256</dim>
				</port>
			</output>
		</layer>
		<layer id="205" name="49454949_const" type="Const" version="opset1">
			<data element_type="f16" offset="4327" shape="" size="2"/>
			<output>
				<port id="1" precision="FP16"/>
			</output>
		</layer>
		<layer id="206" name="49464950_const" type="Const" version="opset1">
			<data element_type="f16" offset="4329" shape="" size="2"/>
			<output>
				<port id="1" precision="FP16"/>
			</output>
		</layer>
		<layer id="207" name="49474951_const" type="Const" version="opset1">
			<data element_type="f16" offset="4327" shape="" size="2"/>
			<output>
				<port id="1" precision="FP16"/>
			</output>
		</layer>
		<layer id="208" name="49484952_const" type="Const" version="opset1">
			<data element_type="f16" offset="4329" shape="" size="2"/>
			<output>
				<port id="1" precision="FP16"/>
			</output>
		</layer>
		<layer id="209" name="bottleneck1_3/add/fq_input_1" type="FakeQuantize" version="opset1">
			<data levels="256"/>
			<input>
				<port id="0">
					<dim>1</dim>
					<dim>32</dim>
					<dim>256</dim>
					<dim>256</dim>
				</port>
				<port id="1"/>
				<port id="2"/>
				<port id="3"/>
				<port id="4"/>
			</input>
			<output>
				<port id="5" precision="FP16">
					<dim>1</dim>
					<dim>32</dim>
					<dim>256</dim>
					<dim>256</dim>
				</port>
			</output>
		</layer>
		<layer id="210" name="bottleneck1_3/add" type="Add" version="opset1">
			<input>
				<port id="0">
					<dim>1</dim>
					<dim>32</dim>
					<dim>256</dim>
					<dim>256</dim>
				</port>
				<port id="1">
					<dim>1</dim>
					<dim>32</dim>
					<dim>256</dim>
					<dim>256</dim>
				</port>
			</input>
			<output>
				<port id="2" precision="FP16">
					<dim>1</dim>
					<dim>32</dim>
					<dim>256</dim>
					<dim>256</dim>
				</port>
			</output>
		</layer>
		<layer id="211" name="bottleneck1_3/fn" type="Elu" version="opset1">
			<data alpha="1.0"/>
			<input>
				<port id="0">
					<dim>1</dim>
					<dim>32</dim>
					<dim>256</dim>
					<dim>256</dim>
				</port>
			</input>
			<output>
				<port id="1" precision="FP16">
					<dim>1</dim>
					<dim>32</dim>
					<dim>256</dim>
					<dim>256</dim>
				</port>
			</output>
		</layer>
		<layer id="212" name="52655269_const" type="Const" version="opset1">
			<data element_type="f16" offset="4331" shape="" size="2"/>
			<output>
				<port id="1" precision="FP16"/>
			</output>
		</layer>
		<layer id="213" name="52665270_const" type="Const" version="opset1">
			<data element_type="f16" offset="4333" shape="" size="2"/>
			<output>
				<port id="1" precision="FP16"/>
			</output>
		</layer>
		<layer id="214" name="52675271_const" type="Const" version="opset1">
			<data element_type="f16" offset="4331" shape="" size="2"/>
			<output>
				<port id="1" precision="FP16"/>
			</output>
		</layer>
		<layer id="215" name="52685272_const" type="Const" version="opset1">
			<data element_type="f16" offset="4333" shape="" size="2"/>
			<output>
				<port id="1" precision="FP16"/>
			</output>
		</layer>
		<layer id="216" name="bottleneck1_4/add/fq_input_0" type="FakeQuantize" version="opset1">
			<data levels="256"/>
			<input>
				<port id="0">
					<dim>1</dim>
					<dim>32</dim>
					<dim>256</dim>
					<dim>256</dim>
				</port>
				<port id="1"/>
				<port id="2"/>
				<port id="3"/>
				<port id="4"/>
			</input>
			<output>
				<port id="5" precision="FP16">
					<dim>1</dim>
					<dim>32</dim>
					<dim>256</dim>
					<dim>256</dim>
				</port>
			</output>
		</layer>
		<layer id="217" name="bottleneck1_4/dim_red/conv/fq_weights_1/Convert_to_float/Cast_012411_const" type="Const" version="opset1">
			<data element_type="u8" offset="4335" shape="8,32,1,1" size="256"/>
			<output>
				<port id="1" precision="U8">
					<dim>8</dim>
					<dim>32</dim>
					<dim>1</dim>
					<dim>1</dim>
				</port>
			</output>
		</layer>
		<layer id="218" name="bottleneck1_4/dim_red/conv/fq_weights_1/Convert_to_float" type="Convert" version="opset1">
			<data destination_type="f16"/>
			<input>
				<port id="0">
					<dim>8</dim>
					<dim>32</dim>
					<dim>1</dim>
					<dim>1</dim>
				</port>
			</input>
			<output>
				<port id="1" precision="FP16">
					<dim>8</dim>
					<dim>32</dim>
					<dim>1</dim>
					<dim>1</dim>
				</port>
			</output>
		</layer>
		<layer id="219" name="bottleneck1_4/dim_red/conv/fq_weights_1/Copy/out_low10307_const" type="Const" version="opset1">
			<data element_type="f16" offset="467" shape="1" size="2"/>
			<output>
				<port id="1" precision="FP16">
					<dim>1</dim>
				</port>
			</output>
		</layer>
		<layer id="220" name="bottleneck1_4/dim_red/conv/fq_weights_1/Copy/out_high10308_const" type="Const" version="opset1">
			<data element_type="f16" offset="469" shape="1" size="2"/>
			<output>
				<port id="1" precision="FP16">
					<dim>1</dim>
				</port>
			</output>
		</layer>
		<layer id="221" name="50675071_const" type="Const" version="opset1">
			<data element_type="f16" offset="4591" shape="8,1,1,1" size="16"/>
			<output>
				<port id="1" precision="FP16">
					<dim>8</dim>
					<dim>1</dim>
					<dim>1</dim>
					<dim>1</dim>
				</port>
			</output>
		</layer>
		<layer id="222" name="50685072_const" type="Const" version="opset1">
			<data element_type="f16" offset="4607" shape="8,1,1,1" size="16"/>
			<output>
				<port id="1" precision="FP16">
					<dim>8</dim>
					<dim>1</dim>
					<dim>1</dim>
					<dim>1</dim>
				</port>
			</output>
		</layer>
		<layer id="223" name="bottleneck1_4/dim_red/conv/fq_weights_1" type="FakeQuantize" version="opset1">
			<data levels="255"/>
			<input>
				<port id="0">
					<dim>8</dim>
					<dim>32</dim>
					<dim>1</dim>
					<dim>1</dim>
				</port>
				<port id="1">
					<dim>1</dim>
				</port>
				<port id="2">
					<dim>1</dim>
				</port>
				<port id="3">
					<dim>8</dim>
					<dim>1</dim>
					<dim>1</dim>
					<dim>1</dim>
				</port>
				<port id="4">
					<dim>8</dim>
					<dim>1</dim>
					<dim>1</dim>
					<dim>1</dim>
				</port>
			</input>
			<output>
				<port id="5" precision="FP16">
					<dim>8</dim>
					<dim>32</dim>
					<dim>1</dim>
					<dim>1</dim>
				</port>
			</output>
		</layer>
		<layer id="224" name="bottleneck1_4/dim_red/conv" type="Convolution" version="opset1">
			<data dilations="1,1" output_padding="0,0" pads_begin="0,0" pads_end="0,0" strides="1,1"/>
			<input>
				<port id="0">
					<dim>1</dim>
					<dim>32</dim>
					<dim>256</dim>
					<dim>256</dim>
				</port>
				<port id="1">
					<dim>8</dim>
					<dim>32</dim>
					<dim>1</dim>
					<dim>1</dim>
				</port>
			</input>
			<output>
				<port id="2" precision="FP16">
					<dim>1</dim>
					<dim>8</dim>
					<dim>256</dim>
					<dim>256</dim>
				</port>
			</output>
		</layer>
		<layer id="225" name="data_add_2573525740/copy_const787_const" type="Const" version="opset1">
			<data element_type="f16" offset="4623" shape="1,8,1,1" size="16"/>
			<output>
				<port id="1" precision="FP16">
					<dim>1</dim>
					<dim>8</dim>
					<dim>1</dim>
					<dim>1</dim>
				</port>
			</output>
		</layer>
		<layer id="226" name="bottleneck1_4/dim_red/bn/variance/Fused_Add_" type="Add" version="opset1">
			<input>
				<port id="0">
					<dim>1</dim>
					<dim>8</dim>
					<dim>256</dim>
					<dim>256</dim>
				</port>
				<port id="1">
					<dim>1</dim>
					<dim>8</dim>
					<dim>1</dim>
					<dim>1</dim>
				</port>
			</input>
			<output>
				<port id="2" precision="FP16">
					<dim>1</dim>
					<dim>8</dim>
					<dim>256</dim>
					<dim>256</dim>
				</port>
			</output>
		</layer>
		<layer id="227" name="bottleneck1_4/dim_red/fn" type="Elu" version="opset1">
			<data alpha="1.0"/>
			<input>
				<port id="0">
					<dim>1</dim>
					<dim>8</dim>
					<dim>256</dim>
					<dim>256</dim>
				</port>
			</input>
			<output>
				<port id="1" precision="FP16">
					<dim>1</dim>
					<dim>8</dim>
					<dim>256</dim>
					<dim>256</dim>
				</port>
			</output>
		</layer>
		<layer id="228" name="24452449_const" type="Const" version="opset1">
			<data element_type="f16" offset="4639" shape="1,8,1,1" size="16"/>
			<output>
				<port id="1" precision="FP16">
					<dim>1</dim>
					<dim>8</dim>
					<dim>1</dim>
					<dim>1</dim>
				</port>
			</output>
		</layer>
		<layer id="229" name="24462450_const" type="Const" version="opset1">
			<data element_type="f16" offset="4655" shape="1,8,1,1" size="16"/>
			<output>
				<port id="1" precision="FP16">
					<dim>1</dim>
					<dim>8</dim>
					<dim>1</dim>
					<dim>1</dim>
				</port>
			</output>
		</layer>
		<layer id="230" name="24472451_const" type="Const" version="opset1">
			<data element_type="f16" offset="4639" shape="1,8,1,1" size="16"/>
			<output>
				<port id="1" precision="FP16">
					<dim>1</dim>
					<dim>8</dim>
					<dim>1</dim>
					<dim>1</dim>
				</port>
			</output>
		</layer>
		<layer id="231" name="24482452_const" type="Const" version="opset1">
			<data element_type="f16" offset="4655" shape="1,8,1,1" size="16"/>
			<output>
				<port id="1" precision="FP16">
					<dim>1</dim>
					<dim>8</dim>
					<dim>1</dim>
					<dim>1</dim>
				</port>
			</output>
		</layer>
		<layer id="232" name="bottleneck1_4/inner/dw1/conv/fq_input_0" type="FakeQuantize" version="opset1">
			<data levels="256"/>
			<input>
				<port id="0">
					<dim>1</dim>
					<dim>8</dim>
					<dim>256</dim>
					<dim>256</dim>
				</port>
				<port id="1">
					<dim>1</dim>
					<dim>8</dim>
					<dim>1</dim>
					<dim>1</dim>
				</port>
				<port id="2">
					<dim>1</dim>
					<dim>8</dim>
					<dim>1</dim>
					<dim>1</dim>
				</port>
				<port id="3">
					<dim>1</dim>
					<dim>8</dim>
					<dim>1</dim>
					<dim>1</dim>
				</port>
				<port id="4">
					<dim>1</dim>
					<dim>8</dim>
					<dim>1</dim>
					<dim>1</dim>
				</port>
			</input>
			<output>
				<port id="5" precision="FP16">
					<dim>1</dim>
					<dim>8</dim>
					<dim>256</dim>
					<dim>256</dim>
				</port>
			</output>
		</layer>
		<layer id="233" name="bottleneck1_4/inner/dw1/conv/fq_weights_1/Convert_to_float/Cast_012539_const" type="Const" version="opset1">
			<data element_type="u8" offset="4671" shape="8,1,3,3" size="72"/>
			<output>
				<port id="1" precision="U8">
					<dim>8</dim>
					<dim>1</dim>
					<dim>3</dim>
					<dim>3</dim>
				</port>
			</output>
		</layer>
		<layer id="234" name="bottleneck1_4/inner/dw1/conv/fq_weights_1/Convert_to_float" type="Convert" version="opset1">
			<data destination_type="f16"/>
			<input>
				<port id="0">
					<dim>8</dim>
					<dim>1</dim>
					<dim>3</dim>
					<dim>3</dim>
				</port>
			</input>
			<output>
				<port id="1" precision="FP16">
					<dim>8</dim>
					<dim>1</dim>
					<dim>3</dim>
					<dim>3</dim>
				</port>
			</output>
		</layer>
		<layer id="235" name="bottleneck1_4/inner/dw1/conv/fq_weights_1/Copy/out_low10499_const" type="Const" version="opset1">
			<data element_type="f16" offset="467" shape="1" size="2"/>
			<output>
				<port id="1" precision="FP16">
					<dim>1</dim>
				</port>
			</output>
		</layer>
		<layer id="236" name="bottleneck1_4/inner/dw1/conv/fq_weights_1/Copy/out_high10500_const" type="Const" version="opset1">
			<data element_type="f16" offset="469" shape="1" size="2"/>
			<output>
				<port id="1" precision="FP16">
					<dim>1</dim>
				</port>
			</output>
		</layer>
		<layer id="237" name="24572461_const" type="Const" version="opset1">
			<data element_type="f16" offset="4743" shape="8,1,1,1" size="16"/>
			<output>
				<port id="1" precision="FP16">
					<dim>8</dim>
					<dim>1</dim>
					<dim>1</dim>
					<dim>1</dim>
				</port>
			</output>
		</layer>
		<layer id="238" name="24582462_const" type="Const" version="opset1">
			<data element_type="f16" offset="4759" shape="8,1,1,1" size="16"/>
			<output>
				<port id="1" precision="FP16">
					<dim>8</dim>
					<dim>1</dim>
					<dim>1</dim>
					<dim>1</dim>
				</port>
			</output>
		</layer>
		<layer id="239" name="bottleneck1_4/inner/dw1/conv/fq_weights_1" type="FakeQuantize" version="opset1">
			<data levels="255"/>
			<input>
				<port id="0">
					<dim>8</dim>
					<dim>1</dim>
					<dim>3</dim>
					<dim>3</dim>
				</port>
				<port id="1">
					<dim>1</dim>
				</port>
				<port id="2">
					<dim>1</dim>
				</port>
				<port id="3">
					<dim>8</dim>
					<dim>1</dim>
					<dim>1</dim>
					<dim>1</dim>
				</port>
				<port id="4">
					<dim>8</dim>
					<dim>1</dim>
					<dim>1</dim>
					<dim>1</dim>
				</port>
			</input>
			<output>
				<port id="5" precision="FP16">
					<dim>8</dim>
					<dim>1</dim>
					<dim>3</dim>
					<dim>3</dim>
				</port>
			</output>
		</layer>
		<layer id="240" name="14040/value14042_const" type="Const" version="opset1">
			<data element_type="i64" offset="1989" shape="5" size="40"/>
			<output>
				<port id="1" precision="I64">
					<dim>5</dim>
				</port>
			</output>
		</layer>
		<layer id="241" name="14040" type="Reshape" version="opset1">
			<data special_zero="True"/>
			<input>
				<port id="0">
					<dim>8</dim>
					<dim>1</dim>
					<dim>3</dim>
					<dim>3</dim>
				</port>
				<port id="1">
					<dim>5</dim>
				</port>
			</input>
			<output>
				<port id="2" precision="FP16">
					<dim>8</dim>
					<dim>1</dim>
					<dim>1</dim>
					<dim>3</dim>
					<dim>3</dim>
				</port>
			</output>
		</layer>
		<layer id="242" name="bottleneck1_4/inner/dw1/conv" type="GroupConvolution" version="opset1">
			<data dilations="1,1" output_padding="0,0" pads_begin="1,1" pads_end="1,1" strides="1,1"/>
			<input>
				<port id="0">
					<dim>1</dim>
					<dim>8</dim>
					<dim>256</dim>
					<dim>256</dim>
				</port>
				<port id="1">
					<dim>8</dim>
					<dim>1</dim>
					<dim>1</dim>
					<dim>3</dim>
					<dim>3</dim>
				</port>
			</input>
			<output>
				<port id="2" precision="FP16">
					<dim>1</dim>
					<dim>8</dim>
					<dim>256</dim>
					<dim>256</dim>
				</port>
			</output>
		</layer>
		<layer id="243" name="data_add_2574325748/copy_const792_const" type="Const" version="opset1">
			<data element_type="f16" offset="4775" shape="1,8,1,1" size="16"/>
			<output>
				<port id="1" precision="FP16">
					<dim>1</dim>
					<dim>8</dim>
					<dim>1</dim>
					<dim>1</dim>
				</port>
			</output>
		</layer>
		<layer id="244" name="bottleneck1_4/inner/dw1/bn/variance/Fused_Add_" type="Add" version="opset1">
			<input>
				<port id="0">
					<dim>1</dim>
					<dim>8</dim>
					<dim>256</dim>
					<dim>256</dim>
				</port>
				<port id="1">
					<dim>1</dim>
					<dim>8</dim>
					<dim>1</dim>
					<dim>1</dim>
				</port>
			</input>
			<output>
				<port id="2" precision="FP16">
					<dim>1</dim>
					<dim>8</dim>
					<dim>256</dim>
					<dim>256</dim>
				</port>
			</output>
		</layer>
		<layer id="245" name="bottleneck1_4/inner/dw1/fn" type="Elu" version="opset1">
			<data alpha="1.0"/>
			<input>
				<port id="0">
					<dim>1</dim>
					<dim>8</dim>
					<dim>256</dim>
					<dim>256</dim>
				</port>
			</input>
			<output>
				<port id="1" precision="FP16">
					<dim>1</dim>
					<dim>8</dim>
					<dim>256</dim>
					<dim>256</dim>
				</port>
			</output>
		</layer>
		<layer id="246" name="39153919_const" type="Const" version="opset1">
			<data element_type="f16" offset="4791" shape="" size="2"/>
			<output>
				<port id="1" precision="FP16"/>
			</output>
		</layer>
		<layer id="247" name="39163920_const" type="Const" version="opset1">
			<data element_type="f16" offset="4793" shape="" size="2"/>
			<output>
				<port id="1" precision="FP16"/>
			</output>
		</layer>
		<layer id="248" name="39173921_const" type="Const" version="opset1">
			<data element_type="f16" offset="4791" shape="" size="2"/>
			<output>
				<port id="1" precision="FP16"/>
			</output>
		</layer>
		<layer id="249" name="39183922_const" type="Const" version="opset1">
			<data element_type="f16" offset="4793" shape="" size="2"/>
			<output>
				<port id="1" precision="FP16"/>
			</output>
		</layer>
		<layer id="250" name="bottleneck1_4/dim_inc/conv/fq_input_0" type="FakeQuantize" version="opset1">
			<data levels="256"/>
			<input>
				<port id="0">
					<dim>1</dim>
					<dim>8</dim>
					<dim>256</dim>
					<dim>256</dim>
				</port>
				<port id="1"/>
				<port id="2"/>
				<port id="3"/>
				<port id="4"/>
			</input>
			<output>
				<port id="5" precision="FP16">
					<dim>1</dim>
					<dim>8</dim>
					<dim>256</dim>
					<dim>256</dim>
				</port>
			</output>
		</layer>
		<layer id="251" name="bottleneck1_4/dim_inc/conv/fq_weights_1/Convert_to_float/Cast_012637_const" type="Const" version="opset1">
			<data element_type="u8" offset="4795" shape="32,8,1,1" size="256"/>
			<output>
				<port id="1" precision="U8">
					<dim>32</dim>
					<dim>8</dim>
					<dim>1</dim>
					<dim>1</dim>
				</port>
			</output>
		</layer>
		<layer id="252" name="bottleneck1_4/dim_inc/conv/fq_weights_1/Convert_to_float" type="Convert" version="opset1">
			<data destination_type="f16"/>
			<input>
				<port id="0">
					<dim>32</dim>
					<dim>8</dim>
					<dim>1</dim>
					<dim>1</dim>
				</port>
			</input>
			<output>
				<port id="1" precision="FP16">
					<dim>32</dim>
					<dim>8</dim>
					<dim>1</dim>
					<dim>1</dim>
				</port>
			</output>
		</layer>
		<layer id="253" name="bottleneck1_4/dim_inc/conv/fq_weights_1/Copy/out_low10899_const" type="Const" version="opset1">
			<data element_type="f16" offset="467" shape="1" size="2"/>
			<output>
				<port id="1" precision="FP16">
					<dim>1</dim>
				</port>
			</output>
		</layer>
		<layer id="254" name="bottleneck1_4/dim_inc/conv/fq_weights_1/Copy/out_high10900_const" type="Const" version="opset1">
			<data element_type="f16" offset="469" shape="1" size="2"/>
			<output>
				<port id="1" precision="FP16">
					<dim>1</dim>
				</port>
			</output>
		</layer>
		<layer id="255" name="39273931_const" type="Const" version="opset1">
			<data element_type="f16" offset="5051" shape="32,1,1,1" size="64"/>
			<output>
				<port id="1" precision="FP16">
					<dim>32</dim>
					<dim>1</dim>
					<dim>1</dim>
					<dim>1</dim>
				</port>
			</output>
		</layer>
		<layer id="256" name="39283932_const" type="Const" version="opset1">
			<data element_type="f16" offset="5115" shape="32,1,1,1" size="64"/>
			<output>
				<port id="1" precision="FP16">
					<dim>32</dim>
					<dim>1</dim>
					<dim>1</dim>
					<dim>1</dim>
				</port>
			</output>
		</layer>
		<layer id="257" name="bottleneck1_4/dim_inc/conv/fq_weights_1" type="FakeQuantize" version="opset1">
			<data levels="255"/>
			<input>
				<port id="0">
					<dim>32</dim>
					<dim>8</dim>
					<dim>1</dim>
					<dim>1</dim>
				</port>
				<port id="1">
					<dim>1</dim>
				</port>
				<port id="2">
					<dim>1</dim>
				</port>
				<port id="3">
					<dim>32</dim>
					<dim>1</dim>
					<dim>1</dim>
					<dim>1</dim>
				</port>
				<port id="4">
					<dim>32</dim>
					<dim>1</dim>
					<dim>1</dim>
					<dim>1</dim>
				</port>
			</input>
			<output>
				<port id="5" precision="FP16">
					<dim>32</dim>
					<dim>8</dim>
					<dim>1</dim>
					<dim>1</dim>
				</port>
			</output>
		</layer>
		<layer id="258" name="bottleneck1_4/dim_inc/conv" type="Convolution" version="opset1">
			<data dilations="1,1" output_padding="0,0" pads_begin="0,0" pads_end="0,0" strides="1,1"/>
			<input>
				<port id="0">
					<dim>1</dim>
					<dim>8</dim>
					<dim>256</dim>
					<dim>256</dim>
				</port>
				<port id="1">
					<dim>32</dim>
					<dim>8</dim>
					<dim>1</dim>
					<dim>1</dim>
				</port>
			</input>
			<output>
				<port id="2" precision="FP16">
					<dim>1</dim>
					<dim>32</dim>
					<dim>256</dim>
					<dim>256</dim>
				</port>
			</output>
		</layer>
		<layer id="259" name="data_add_2575125756/copy_const797_const" type="Const" version="opset1">
			<data element_type="f16" offset="5179" shape="1,32,1,1" size="64"/>
			<output>
				<port id="1" precision="FP16">
					<dim>1</dim>
					<dim>32</dim>
					<dim>1</dim>
					<dim>1</dim>
				</port>
			</output>
		</layer>
		<layer id="260" name="bottleneck1_4/dim_inc/bn/variance/Fused_Add_" type="Add" version="opset1">
			<input>
				<port id="0">
					<dim>1</dim>
					<dim>32</dim>
					<dim>256</dim>
					<dim>256</dim>
				</port>
				<port id="1">
					<dim>1</dim>
					<dim>32</dim>
					<dim>1</dim>
					<dim>1</dim>
				</port>
			</input>
			<output>
				<port id="2" precision="FP16">
					<dim>1</dim>
					<dim>32</dim>
					<dim>256</dim>
					<dim>256</dim>
				</port>
			</output>
		</layer>
		<layer id="261" name="52755279_const" type="Const" version="opset1">
			<data element_type="f16" offset="5243" shape="" size="2"/>
			<output>
				<port id="1" precision="FP16"/>
			</output>
		</layer>
		<layer id="262" name="52765280_const" type="Const" version="opset1">
			<data element_type="f16" offset="5245" shape="" size="2"/>
			<output>
				<port id="1" precision="FP16"/>
			</output>
		</layer>
		<layer id="263" name="52775281_const" type="Const" version="opset1">
			<data element_type="f16" offset="5243" shape="" size="2"/>
			<output>
				<port id="1" precision="FP16"/>
			</output>
		</layer>
		<layer id="264" name="52785282_const" type="Const" version="opset1">
			<data element_type="f16" offset="5245" shape="" size="2"/>
			<output>
				<port id="1" precision="FP16"/>
			</output>
		</layer>
		<layer id="265" name="bottleneck1_4/add/fq_input_1" type="FakeQuantize" version="opset1">
			<data levels="256"/>
			<input>
				<port id="0">
					<dim>1</dim>
					<dim>32</dim>
					<dim>256</dim>
					<dim>256</dim>
				</port>
				<port id="1"/>
				<port id="2"/>
				<port id="3"/>
				<port id="4"/>
			</input>
			<output>
				<port id="5" precision="FP16">
					<dim>1</dim>
					<dim>32</dim>
					<dim>256</dim>
					<dim>256</dim>
				</port>
			</output>
		</layer>
		<layer id="266" name="bottleneck1_4/add" type="Add" version="opset1">
			<input>
				<port id="0">
					<dim>1</dim>
					<dim>32</dim>
					<dim>256</dim>
					<dim>256</dim>
				</port>
				<port id="1">
					<dim>1</dim>
					<dim>32</dim>
					<dim>256</dim>
					<dim>256</dim>
				</port>
			</input>
			<output>
				<port id="2" precision="FP16">
					<dim>1</dim>
					<dim>32</dim>
					<dim>256</dim>
					<dim>256</dim>
				</port>
			</output>
		</layer>
		<layer id="267" name="bottleneck1_4/fn" type="Elu" version="opset1">
			<data alpha="1.0"/>
			<input>
				<port id="0">
					<dim>1</dim>
					<dim>32</dim>
					<dim>256</dim>
					<dim>256</dim>
				</port>
			</input>
			<output>
				<port id="1" precision="FP16">
					<dim>1</dim>
					<dim>32</dim>
					<dim>256</dim>
					<dim>256</dim>
				</port>
			</output>
		</layer>
		<layer id="268" name="29352939_const" type="Const" version="opset1">
			<data element_type="f16" offset="4331" shape="" size="2"/>
			<output>
				<port id="1" precision="FP16"/>
			</output>
		</layer>
		<layer id="269" name="29362940_const" type="Const" version="opset1">
			<data element_type="f16" offset="5247" shape="" size="2"/>
			<output>
				<port id="1" precision="FP16"/>
			</output>
		</layer>
		<layer id="270" name="29372941_const" type="Const" version="opset1">
			<data element_type="f16" offset="4331" shape="" size="2"/>
			<output>
				<port id="1" precision="FP16"/>
			</output>
		</layer>
		<layer id="271" name="29382942_const" type="Const" version="opset1">
			<data element_type="f16" offset="5247" shape="" size="2"/>
			<output>
				<port id="1" precision="FP16"/>
			</output>
		</layer>
		<layer id="272" name="bottleneck2_0/dim_red/conv/fq_input_0" type="FakeQuantize" version="opset1">
			<data levels="256"/>
			<input>
				<port id="0">
					<dim>1</dim>
					<dim>32</dim>
					<dim>256</dim>
					<dim>256</dim>
				</port>
				<port id="1"/>
				<port id="2"/>
				<port id="3"/>
				<port id="4"/>
			</input>
			<output>
				<port id="5" precision="FP16">
					<dim>1</dim>
					<dim>32</dim>
					<dim>256</dim>
					<dim>256</dim>
				</port>
			</output>
		</layer>
		<layer id="273" name="bottleneck2_0/skip/pooling" type="MaxPool" version="opset1">
			<data kernel="2,2" pads_begin="0,0" pads_end="0,0" rounding_type="ceil" strides="2,2"/>
			<input>
				<port id="0">
					<dim>1</dim>
					<dim>32</dim>
					<dim>256</dim>
					<dim>256</dim>
				</port>
			</input>
			<output>
				<port id="1" precision="FP16">
					<dim>1</dim>
					<dim>32</dim>
					<dim>128</dim>
					<dim>128</dim>
				</port>
			</output>
		</layer>
		<layer id="274" name="bottleneck2_0/skip/conv/fq_weights_1/Convert_to_float/Cast_012371_const" type="Const" version="opset1">
			<data element_type="u8" offset="5249" shape="64,32,1,1" size="2048"/>
			<output>
				<port id="1" precision="U8">
					<dim>64</dim>
					<dim>32</dim>
					<dim>1</dim>
					<dim>1</dim>
				</port>
			</output>
		</layer>
		<layer id="275" name="bottleneck2_0/skip/conv/fq_weights_1/Convert_to_float" type="Convert" version="opset1">
			<data destination_type="f16"/>
			<input>
				<port id="0">
					<dim>64</dim>
					<dim>32</dim>
					<dim>1</dim>
					<dim>1</dim>
				</port>
			</input>
			<output>
				<port id="1" precision="FP16">
					<dim>64</dim>
					<dim>32</dim>
					<dim>1</dim>
					<dim>1</dim>
				</port>
			</output>
		</layer>
		<layer id="276" name="bottleneck2_0/skip/conv/fq_weights_1/Copy/out_low10763_const" type="Const" version="opset1">
			<data element_type="f16" offset="467" shape="1" size="2"/>
			<output>
				<port id="1" precision="FP16">
					<dim>1</dim>
				</port>
			</output>
		</layer>
		<layer id="277" name="bottleneck2_0/skip/conv/fq_weights_1/Copy/out_high10764_const" type="Const" version="opset1">
			<data element_type="f16" offset="469" shape="1" size="2"/>
			<output>
				<port id="1" precision="FP16">
					<dim>1</dim>
				</port>
			</output>
		</layer>
		<layer id="278" name="23772381_const" type="Const" version="opset1">
			<data element_type="f16" offset="7297" shape="64,1,1,1" size="128"/>
			<output>
				<port id="1" precision="FP16">
					<dim>64</dim>
					<dim>1</dim>
					<dim>1</dim>
					<dim>1</dim>
				</port>
			</output>
		</layer>
		<layer id="279" name="23782382_const" type="Const" version="opset1">
			<data element_type="f16" offset="7425" shape="64,1,1,1" size="128"/>
			<output>
				<port id="1" precision="FP16">
					<dim>64</dim>
					<dim>1</dim>
					<dim>1</dim>
					<dim>1</dim>
				</port>
			</output>
		</layer>
		<layer id="280" name="bottleneck2_0/skip/conv/fq_weights_1" type="FakeQuantize" version="opset1">
			<data levels="255"/>
			<input>
				<port id="0">
					<dim>64</dim>
					<dim>32</dim>
					<dim>1</dim>
					<dim>1</dim>
				</port>
				<port id="1">
					<dim>1</dim>
				</port>
				<port id="2">
					<dim>1</dim>
				</port>
				<port id="3">
					<dim>64</dim>
					<dim>1</dim>
					<dim>1</dim>
					<dim>1</dim>
				</port>
				<port id="4">
					<dim>64</dim>
					<dim>1</dim>
					<dim>1</dim>
					<dim>1</dim>
				</port>
			</input>
			<output>
				<port id="5" precision="FP16">
					<dim>64</dim>
					<dim>32</dim>
					<dim>1</dim>
					<dim>1</dim>
				</port>
			</output>
		</layer>
		<layer id="281" name="bottleneck2_0/skip/conv" type="Convolution" version="opset1">
			<data dilations="1,1" output_padding="0,0" pads_begin="0,0" pads_end="0,0" strides="1,1"/>
			<input>
				<port id="0">
					<dim>1</dim>
					<dim>32</dim>
					<dim>128</dim>
					<dim>128</dim>
				</port>
				<port id="1">
					<dim>64</dim>
					<dim>32</dim>
					<dim>1</dim>
					<dim>1</dim>
				</port>
			</input>
			<output>
				<port id="2" precision="FP16">
					<dim>1</dim>
					<dim>64</dim>
					<dim>128</dim>
					<dim>128</dim>
				</port>
			</output>
		</layer>
		<layer id="282" name="data_add_2575925764/copy_const804_const" type="Const" version="opset1">
			<data element_type="f16" offset="7553" shape="1,64,1,1" size="128"/>
			<output>
				<port id="1" precision="FP16">
					<dim>1</dim>
					<dim>64</dim>
					<dim>1</dim>
					<dim>1</dim>
				</port>
			</output>
		</layer>
		<layer id="283" name="bottleneck2_0/skip/bn/variance/Fused_Add_" type="Add" version="opset1">
			<input>
				<port id="0">
					<dim>1</dim>
					<dim>64</dim>
					<dim>128</dim>
					<dim>128</dim>
				</port>
				<port id="1">
					<dim>1</dim>
					<dim>64</dim>
					<dim>1</dim>
					<dim>1</dim>
				</port>
			</input>
			<output>
				<port id="2" precision="FP16">
					<dim>1</dim>
					<dim>64</dim>
					<dim>128</dim>
					<dim>128</dim>
				</port>
			</output>
		</layer>
		<layer id="284" name="51155119_const" type="Const" version="opset1">
			<data element_type="f16" offset="7681" shape="" size="2"/>
			<output>
				<port id="1" precision="FP16"/>
			</output>
		</layer>
		<layer id="285" name="51165120_const" type="Const" version="opset1">
			<data element_type="f16" offset="7683" shape="" size="2"/>
			<output>
				<port id="1" precision="FP16"/>
			</output>
		</layer>
		<layer id="286" name="51175121_const" type="Const" version="opset1">
			<data element_type="f16" offset="7681" shape="" size="2"/>
			<output>
				<port id="1" precision="FP16"/>
			</output>
		</layer>
		<layer id="287" name="51185122_const" type="Const" version="opset1">
			<data element_type="f16" offset="7683" shape="" size="2"/>
			<output>
				<port id="1" precision="FP16"/>
			</output>
		</layer>
		<layer id="288" name="bottleneck2_0/add/fq_input_0" type="FakeQuantize" version="opset1">
			<data levels="256"/>
			<input>
				<port id="0">
					<dim>1</dim>
					<dim>64</dim>
					<dim>128</dim>
					<dim>128</dim>
				</port>
				<port id="1"/>
				<port id="2"/>
				<port id="3"/>
				<port id="4"/>
			</input>
			<output>
				<port id="5" precision="FP16">
					<dim>1</dim>
					<dim>64</dim>
					<dim>128</dim>
					<dim>128</dim>
				</port>
			</output>
		</layer>
		<layer id="289" name="bottleneck2_0/dim_red/conv/fq_weights_1/Convert_to_float/Cast_012571_const" type="Const" version="opset1">
			<data element_type="u8" offset="7685" shape="16,32,1,1" size="512"/>
			<output>
				<port id="1" precision="U8">
					<dim>16</dim>
					<dim>32</dim>
					<dim>1</dim>
					<dim>1</dim>
				</port>
			</output>
		</layer>
		<layer id="290" name="bottleneck2_0/dim_red/conv/fq_weights_1/Convert_to_float" type="Convert" version="opset1">
			<data destination_type="f16"/>
			<input>
				<port id="0">
					<dim>16</dim>
					<dim>32</dim>
					<dim>1</dim>
					<dim>1</dim>
				</port>
			</input>
			<output>
				<port id="1" precision="FP16">
					<dim>16</dim>
					<dim>32</dim>
					<dim>1</dim>
					<dim>1</dim>
				</port>
			</output>
		</layer>
		<layer id="291" name="bottleneck2_0/dim_red/conv/fq_weights_1/Copy/out_low10347_const" type="Const" version="opset1">
			<data element_type="f16" offset="467" shape="1" size="2"/>
			<output>
				<port id="1" precision="FP16">
					<dim>1</dim>
				</port>
			</output>
		</layer>
		<layer id="292" name="bottleneck2_0/dim_red/conv/fq_weights_1/Copy/out_high10348_const" type="Const" version="opset1">
			<data element_type="f16" offset="469" shape="1" size="2"/>
			<output>
				<port id="1" precision="FP16">
					<dim>1</dim>
				</port>
			</output>
		</layer>
		<layer id="293" name="29472951_const" type="Const" version="opset1">
			<data element_type="f16" offset="8197" shape="16,1,1,1" size="32"/>
			<output>
				<port id="1" precision="FP16">
					<dim>16</dim>
					<dim>1</dim>
					<dim>1</dim>
					<dim>1</dim>
				</port>
			</output>
		</layer>
		<layer id="294" name="29482952_const" type="Const" version="opset1">
			<data element_type="f16" offset="8229" shape="16,1,1,1" size="32"/>
			<output>
				<port id="1" precision="FP16">
					<dim>16</dim>
					<dim>1</dim>
					<dim>1</dim>
					<dim>1</dim>
				</port>
			</output>
		</layer>
		<layer id="295" name="bottleneck2_0/dim_red/conv/fq_weights_1" type="FakeQuantize" version="opset1">
			<data levels="255"/>
			<input>
				<port id="0">
					<dim>16</dim>
					<dim>32</dim>
					<dim>1</dim>
					<dim>1</dim>
				</port>
				<port id="1">
					<dim>1</dim>
				</port>
				<port id="2">
					<dim>1</dim>
				</port>
				<port id="3">
					<dim>16</dim>
					<dim>1</dim>
					<dim>1</dim>
					<dim>1</dim>
				</port>
				<port id="4">
					<dim>16</dim>
					<dim>1</dim>
					<dim>1</dim>
					<dim>1</dim>
				</port>
			</input>
			<output>
				<port id="5" precision="FP16">
					<dim>16</dim>
					<dim>32</dim>
					<dim>1</dim>
					<dim>1</dim>
				</port>
			</output>
		</layer>
		<layer id="296" name="bottleneck2_0/dim_red/conv" type="Convolution" version="opset1">
			<data dilations="1,1" output_padding="0,0" pads_begin="0,0" pads_end="0,0" strides="1,1"/>
			<input>
				<port id="0">
					<dim>1</dim>
					<dim>32</dim>
					<dim>256</dim>
					<dim>256</dim>
				</port>
				<port id="1">
					<dim>16</dim>
					<dim>32</dim>
					<dim>1</dim>
					<dim>1</dim>
				</port>
			</input>
			<output>
				<port id="2" precision="FP16">
					<dim>1</dim>
					<dim>16</dim>
					<dim>256</dim>
					<dim>256</dim>
				</port>
			</output>
		</layer>
		<layer id="297" name="data_add_2576725772/copy_const808_const" type="Const" version="opset1">
			<data element_type="f16" offset="8261" shape="1,16,1,1" size="32"/>
			<output>
				<port id="1" precision="FP16">
					<dim>1</dim>
					<dim>16</dim>
					<dim>1</dim>
					<dim>1</dim>
				</port>
			</output>
		</layer>
		<layer id="298" name="bottleneck2_0/dim_red/bn/variance/Fused_Add_" type="Add" version="opset1">
			<input>
				<port id="0">
					<dim>1</dim>
					<dim>16</dim>
					<dim>256</dim>
					<dim>256</dim>
				</port>
				<port id="1">
					<dim>1</dim>
					<dim>16</dim>
					<dim>1</dim>
					<dim>1</dim>
				</port>
			</input>
			<output>
				<port id="2" precision="FP16">
					<dim>1</dim>
					<dim>16</dim>
					<dim>256</dim>
					<dim>256</dim>
				</port>
			</output>
		</layer>
		<layer id="299" name="bottleneck2_0/dim_red/fn" type="Elu" version="opset1">
			<data alpha="1.0"/>
			<input>
				<port id="0">
					<dim>1</dim>
					<dim>16</dim>
					<dim>256</dim>
					<dim>256</dim>
				</port>
			</input>
			<output>
				<port id="1" precision="FP16">
					<dim>1</dim>
					<dim>16</dim>
					<dim>256</dim>
					<dim>256</dim>
				</port>
			</output>
		</layer>
		<layer id="300" name="35753579_const" type="Const" version="opset1">
			<data element_type="f16" offset="8293" shape="1,16,1,1" size="32"/>
			<output>
				<port id="1" precision="FP16">
					<dim>1</dim>
					<dim>16</dim>
					<dim>1</dim>
					<dim>1</dim>
				</port>
			</output>
		</layer>
		<layer id="301" name="35763580_const" type="Const" version="opset1">
			<data element_type="f16" offset="8325" shape="1,16,1,1" size="32"/>
			<output>
				<port id="1" precision="FP16">
					<dim>1</dim>
					<dim>16</dim>
					<dim>1</dim>
					<dim>1</dim>
				</port>
			</output>
		</layer>
		<layer id="302" name="35773581_const" type="Const" version="opset1">
			<data element_type="f16" offset="8293" shape="1,16,1,1" size="32"/>
			<output>
				<port id="1" precision="FP16">
					<dim>1</dim>
					<dim>16</dim>
					<dim>1</dim>
					<dim>1</dim>
				</port>
			</output>
		</layer>
		<layer id="303" name="35783582_const" type="Const" version="opset1">
			<data element_type="f16" offset="8325" shape="1,16,1,1" size="32"/>
			<output>
				<port id="1" precision="FP16">
					<dim>1</dim>
					<dim>16</dim>
					<dim>1</dim>
					<dim>1</dim>
				</port>
			</output>
		</layer>
		<layer id="304" name="bottleneck2_0/inner/dw1/conv/fq_input_0" type="FakeQuantize" version="opset1">
			<data levels="256"/>
			<input>
				<port id="0">
					<dim>1</dim>
					<dim>16</dim>
					<dim>256</dim>
					<dim>256</dim>
				</port>
				<port id="1">
					<dim>1</dim>
					<dim>16</dim>
					<dim>1</dim>
					<dim>1</dim>
				</port>
				<port id="2">
					<dim>1</dim>
					<dim>16</dim>
					<dim>1</dim>
					<dim>1</dim>
				</port>
				<port id="3">
					<dim>1</dim>
					<dim>16</dim>
					<dim>1</dim>
					<dim>1</dim>
				</port>
				<port id="4">
					<dim>1</dim>
					<dim>16</dim>
					<dim>1</dim>
					<dim>1</dim>
				</port>
			</input>
			<output>
				<port id="5" precision="FP16">
					<dim>1</dim>
					<dim>16</dim>
					<dim>256</dim>
					<dim>256</dim>
				</port>
			</output>
		</layer>
		<layer id="305" name="bottleneck2_0/inner/dw1/conv/fq_weights_1/Convert_to_float/Cast_012531_const" type="Const" version="opset1">
			<data element_type="u8" offset="8357" shape="16,1,3,3" size="144"/>
			<output>
				<port id="1" precision="U8">
					<dim>16</dim>
					<dim>1</dim>
					<dim>3</dim>
					<dim>3</dim>
				</port>
			</output>
		</layer>
		<layer id="306" name="bottleneck2_0/inner/dw1/conv/fq_weights_1/Convert_to_float" type="Convert" version="opset1">
			<data destination_type="f16"/>
			<input>
				<port id="0">
					<dim>16</dim>
					<dim>1</dim>
					<dim>3</dim>
					<dim>3</dim>
				</port>
			</input>
			<output>
				<port id="1" precision="FP16">
					<dim>16</dim>
					<dim>1</dim>
					<dim>3</dim>
					<dim>3</dim>
				</port>
			</output>
		</layer>
		<layer id="307" name="bottleneck2_0/inner/dw1/conv/fq_weights_1/Copy/out_low10827_const" type="Const" version="opset1">
			<data element_type="f16" offset="467" shape="1" size="2"/>
			<output>
				<port id="1" precision="FP16">
					<dim>1</dim>
				</port>
			</output>
		</layer>
		<layer id="308" name="bottleneck2_0/inner/dw1/conv/fq_weights_1/Copy/out_high10828_const" type="Const" version="opset1">
			<data element_type="f16" offset="469" shape="1" size="2"/>
			<output>
				<port id="1" precision="FP16">
					<dim>1</dim>
				</port>
			</output>
		</layer>
		<layer id="309" name="35873591_const" type="Const" version="opset1">
			<data element_type="f16" offset="8501" shape="16,1,1,1" size="32"/>
			<output>
				<port id="1" precision="FP16">
					<dim>16</dim>
					<dim>1</dim>
					<dim>1</dim>
					<dim>1</dim>
				</port>
			</output>
		</layer>
		<layer id="310" name="35883592_const" type="Const" version="opset1">
			<data element_type="f16" offset="8533" shape="16,1,1,1" size="32"/>
			<output>
				<port id="1" precision="FP16">
					<dim>16</dim>
					<dim>1</dim>
					<dim>1</dim>
					<dim>1</dim>
				</port>
			</output>
		</layer>
		<layer id="311" name="bottleneck2_0/inner/dw1/conv/fq_weights_1" type="FakeQuantize" version="opset1">
			<data levels="255"/>
			<input>
				<port id="0">
					<dim>16</dim>
					<dim>1</dim>
					<dim>3</dim>
					<dim>3</dim>
				</port>
				<port id="1">
					<dim>1</dim>
				</port>
				<port id="2">
					<dim>1</dim>
				</port>
				<port id="3">
					<dim>16</dim>
					<dim>1</dim>
					<dim>1</dim>
					<dim>1</dim>
				</port>
				<port id="4">
					<dim>16</dim>
					<dim>1</dim>
					<dim>1</dim>
					<dim>1</dim>
				</port>
			</input>
			<output>
				<port id="5" precision="FP16">
					<dim>16</dim>
					<dim>1</dim>
					<dim>3</dim>
					<dim>3</dim>
				</port>
			</output>
		</layer>
		<layer id="312" name="14104/value14106_const" type="Const" version="opset1">
			<data element_type="i64" offset="8565" shape="5" size="40"/>
			<output>
				<port id="1" precision="I64">
					<dim>5</dim>
				</port>
			</output>
		</layer>
		<layer id="313" name="14104" type="Reshape" version="opset1">
			<data special_zero="True"/>
			<input>
				<port id="0">
					<dim>16</dim>
					<dim>1</dim>
					<dim>3</dim>
					<dim>3</dim>
				</port>
				<port id="1">
					<dim>5</dim>
				</port>
			</input>
			<output>
				<port id="2" precision="FP16">
					<dim>16</dim>
					<dim>1</dim>
					<dim>1</dim>
					<dim>3</dim>
					<dim>3</dim>
				</port>
			</output>
		</layer>
		<layer id="314" name="bottleneck2_0/inner/dw1/conv" type="GroupConvolution" version="opset1">
			<data dilations="1,1" output_padding="0,0" pads_begin="1,1" pads_end="1,1" strides="2,2"/>
			<input>
				<port id="0">
					<dim>1</dim>
					<dim>16</dim>
					<dim>256</dim>
					<dim>256</dim>
				</port>
				<port id="1">
					<dim>16</dim>
					<dim>1</dim>
					<dim>1</dim>
					<dim>3</dim>
					<dim>3</dim>
				</port>
			</input>
			<output>
				<port id="2" precision="FP16">
					<dim>1</dim>
					<dim>16</dim>
					<dim>128</dim>
					<dim>128</dim>
				</port>
			</output>
		</layer>
		<layer id="315" name="data_add_2577525780/copy_const813_const" type="Const" version="opset1">
			<data element_type="f16" offset="8605" shape="1,16,1,1" size="32"/>
			<output>
				<port id="1" precision="FP16">
					<dim>1</dim>
					<dim>16</dim>
					<dim>1</dim>
					<dim>1</dim>
				</port>
			</output>
		</layer>
		<layer id="316" name="bottleneck2_0/inner/dw1/bn/variance/Fused_Add_" type="Add" version="opset1">
			<input>
				<port id="0">
					<dim>1</dim>
					<dim>16</dim>
					<dim>128</dim>
					<dim>128</dim>
				</port>
				<port id="1">
					<dim>1</dim>
					<dim>16</dim>
					<dim>1</dim>
					<dim>1</dim>
				</port>
			</input>
			<output>
				<port id="2" precision="FP16">
					<dim>1</dim>
					<dim>16</dim>
					<dim>128</dim>
					<dim>128</dim>
				</port>
			</output>
		</layer>
		<layer id="317" name="bottleneck2_0/inner/dw1/fn" type="Elu" version="opset1">
			<data alpha="1.0"/>
			<input>
				<port id="0">
					<dim>1</dim>
					<dim>16</dim>
					<dim>128</dim>
					<dim>128</dim>
				</port>
			</input>
			<output>
				<port id="1" precision="FP16">
					<dim>1</dim>
					<dim>16</dim>
					<dim>128</dim>
					<dim>128</dim>
				</port>
			</output>
		</layer>
		<layer id="318" name="29752979_const" type="Const" version="opset1">
			<data element_type="f16" offset="8637" shape="" size="2"/>
			<output>
				<port id="1" precision="FP16"/>
			</output>
		</layer>
		<layer id="319" name="29762980_const" type="Const" version="opset1">
			<data element_type="f16" offset="8639" shape="" size="2"/>
			<output>
				<port id="1" precision="FP16"/>
			</output>
		</layer>
		<layer id="320" name="29772981_const" type="Const" version="opset1">
			<data element_type="f16" offset="8637" shape="" size="2"/>
			<output>
				<port id="1" precision="FP16"/>
			</output>
		</layer>
		<layer id="321" name="29782982_const" type="Const" version="opset1">
			<data element_type="f16" offset="8639" shape="" size="2"/>
			<output>
				<port id="1" precision="FP16"/>
			</output>
		</layer>
		<layer id="322" name="bottleneck2_0/dim_inc/conv/fq_input_0" type="FakeQuantize" version="opset1">
			<data levels="256"/>
			<input>
				<port id="0">
					<dim>1</dim>
					<dim>16</dim>
					<dim>128</dim>
					<dim>128</dim>
				</port>
				<port id="1"/>
				<port id="2"/>
				<port id="3"/>
				<port id="4"/>
			</input>
			<output>
				<port id="5" precision="FP16">
					<dim>1</dim>
					<dim>16</dim>
					<dim>128</dim>
					<dim>128</dim>
				</port>
			</output>
		</layer>
		<layer id="323" name="bottleneck2_0/dim_inc/conv/fq_weights_1/Convert_to_float/Cast_012613_const" type="Const" version="opset1">
			<data element_type="u8" offset="8641" shape="64,16,1,1" size="1024"/>
			<output>
				<port id="1" precision="U8">
					<dim>64</dim>
					<dim>16</dim>
					<dim>1</dim>
					<dim>1</dim>
				</port>
			</output>
		</layer>
		<layer id="324" name="bottleneck2_0/dim_inc/conv/fq_weights_1/Convert_to_float" type="Convert" version="opset1">
			<data destination_type="f16"/>
			<input>
				<port id="0">
					<dim>64</dim>
					<dim>16</dim>
					<dim>1</dim>
					<dim>1</dim>
				</port>
			</input>
			<output>
				<port id="1" precision="FP16">
					<dim>64</dim>
					<dim>16</dim>
					<dim>1</dim>
					<dim>1</dim>
				</port>
			</output>
		</layer>
		<layer id="325" name="bottleneck2_0/dim_inc/conv/fq_weights_1/Copy/out_low10243_const" type="Const" version="opset1">
			<data element_type="f16" offset="467" shape="1" size="2"/>
			<output>
				<port id="1" precision="FP16">
					<dim>1</dim>
				</port>
			</output>
		</layer>
		<layer id="326" name="bottleneck2_0/dim_inc/conv/fq_weights_1/Copy/out_high10244_const" type="Const" version="opset1">
			<data element_type="f16" offset="469" shape="1" size="2"/>
			<output>
				<port id="1" precision="FP16">
					<dim>1</dim>
				</port>
			</output>
		</layer>
		<layer id="327" name="29872991_const" type="Const" version="opset1">
			<data element_type="f16" offset="9665" shape="64,1,1,1" size="128"/>
			<output>
				<port id="1" precision="FP16">
					<dim>64</dim>
					<dim>1</dim>
					<dim>1</dim>
					<dim>1</dim>
				</port>
			</output>
		</layer>
		<layer id="328" name="29882992_const" type="Const" version="opset1">
			<data element_type="f16" offset="9793" shape="64,1,1,1" size="128"/>
			<output>
				<port id="1" precision="FP16">
					<dim>64</dim>
					<dim>1</dim>
					<dim>1</dim>
					<dim>1</dim>
				</port>
			</output>
		</layer>
		<layer id="329" name="bottleneck2_0/dim_inc/conv/fq_weights_1" type="FakeQuantize" version="opset1">
			<data levels="255"/>
			<input>
				<port id="0">
					<dim>64</dim>
					<dim>16</dim>
					<dim>1</dim>
					<dim>1</dim>
				</port>
				<port id="1">
					<dim>1</dim>
				</port>
				<port id="2">
					<dim>1</dim>
				</port>
				<port id="3">
					<dim>64</dim>
					<dim>1</dim>
					<dim>1</dim>
					<dim>1</dim>
				</port>
				<port id="4">
					<dim>64</dim>
					<dim>1</dim>
					<dim>1</dim>
					<dim>1</dim>
				</port>
			</input>
			<output>
				<port id="5" precision="FP16">
					<dim>64</dim>
					<dim>16</dim>
					<dim>1</dim>
					<dim>1</dim>
				</port>
			</output>
		</layer>
		<layer id="330" name="bottleneck2_0/dim_inc/conv" type="Convolution" version="opset1">
			<data dilations="1,1" output_padding="0,0" pads_begin="0,0" pads_end="0,0" strides="1,1"/>
			<input>
				<port id="0">
					<dim>1</dim>
					<dim>16</dim>
					<dim>128</dim>
					<dim>128</dim>
				</port>
				<port id="1">
					<dim>64</dim>
					<dim>16</dim>
					<dim>1</dim>
					<dim>1</dim>
				</port>
			</input>
			<output>
				<port id="2" precision="FP16">
					<dim>1</dim>
					<dim>64</dim>
					<dim>128</dim>
					<dim>128</dim>
				</port>
			</output>
		</layer>
		<layer id="331" name="data_add_2578325788/copy_const818_const" type="Const" version="opset1">
			<data element_type="f16" offset="9921" shape="1,64,1,1" size="128"/>
			<output>
				<port id="1" precision="FP16">
					<dim>1</dim>
					<dim>64</dim>
					<dim>1</dim>
					<dim>1</dim>
				</port>
			</output>
		</layer>
		<layer id="332" name="bottleneck2_0/dim_inc/bn/variance/Fused_Add_" type="Add" version="opset1">
			<input>
				<port id="0">
					<dim>1</dim>
					<dim>64</dim>
					<dim>128</dim>
					<dim>128</dim>
				</port>
				<port id="1">
					<dim>1</dim>
					<dim>64</dim>
					<dim>1</dim>
					<dim>1</dim>
				</port>
			</input>
			<output>
				<port id="2" precision="FP16">
					<dim>1</dim>
					<dim>64</dim>
					<dim>128</dim>
					<dim>128</dim>
				</port>
			</output>
		</layer>
		<layer id="333" name="51255129_const" type="Const" version="opset1">
			<data element_type="f16" offset="10049" shape="" size="2"/>
			<output>
				<port id="1" precision="FP16"/>
			</output>
		</layer>
		<layer id="334" name="51265130_const" type="Const" version="opset1">
			<data element_type="f16" offset="10051" shape="" size="2"/>
			<output>
				<port id="1" precision="FP16"/>
			</output>
		</layer>
		<layer id="335" name="51275131_const" type="Const" version="opset1">
			<data element_type="f16" offset="10049" shape="" size="2"/>
			<output>
				<port id="1" precision="FP16"/>
			</output>
		</layer>
		<layer id="336" name="51285132_const" type="Const" version="opset1">
			<data element_type="f16" offset="10051" shape="" size="2"/>
			<output>
				<port id="1" precision="FP16"/>
			</output>
		</layer>
		<layer id="337" name="bottleneck2_0/add/fq_input_1" type="FakeQuantize" version="opset1">
			<data levels="256"/>
			<input>
				<port id="0">
					<dim>1</dim>
					<dim>64</dim>
					<dim>128</dim>
					<dim>128</dim>
				</port>
				<port id="1"/>
				<port id="2"/>
				<port id="3"/>
				<port id="4"/>
			</input>
			<output>
				<port id="5" precision="FP16">
					<dim>1</dim>
					<dim>64</dim>
					<dim>128</dim>
					<dim>128</dim>
				</port>
			</output>
		</layer>
		<layer id="338" name="bottleneck2_0/add" type="Add" version="opset1">
			<input>
				<port id="0">
					<dim>1</dim>
					<dim>64</dim>
					<dim>128</dim>
					<dim>128</dim>
				</port>
				<port id="1">
					<dim>1</dim>
					<dim>64</dim>
					<dim>128</dim>
					<dim>128</dim>
				</port>
			</input>
			<output>
				<port id="2" precision="FP16">
					<dim>1</dim>
					<dim>64</dim>
					<dim>128</dim>
					<dim>128</dim>
				</port>
			</output>
		</layer>
		<layer id="339" name="bottleneck2_0/fn" type="Elu" version="opset1">
			<data alpha="1.0"/>
			<input>
				<port id="0">
					<dim>1</dim>
					<dim>64</dim>
					<dim>128</dim>
					<dim>128</dim>
				</port>
			</input>
			<output>
				<port id="1" precision="FP16">
					<dim>1</dim>
					<dim>64</dim>
					<dim>128</dim>
					<dim>128</dim>
				</port>
			</output>
		</layer>
		<layer id="340" name="50355039_const" type="Const" version="opset1">
			<data element_type="f16" offset="10053" shape="" size="2"/>
			<output>
				<port id="1" precision="FP16"/>
			</output>
		</layer>
		<layer id="341" name="50365040_const" type="Const" version="opset1">
			<data element_type="f16" offset="10055" shape="" size="2"/>
			<output>
				<port id="1" precision="FP16"/>
			</output>
		</layer>
		<layer id="342" name="50375041_const" type="Const" version="opset1">
			<data element_type="f16" offset="10053" shape="" size="2"/>
			<output>
				<port id="1" precision="FP16"/>
			</output>
		</layer>
		<layer id="343" name="50385042_const" type="Const" version="opset1">
			<data element_type="f16" offset="10055" shape="" size="2"/>
			<output>
				<port id="1" precision="FP16"/>
			</output>
		</layer>
		<layer id="344" name="bottleneck2_1/add/fq_input_0" type="FakeQuantize" version="opset1">
			<data levels="256"/>
			<input>
				<port id="0">
					<dim>1</dim>
					<dim>64</dim>
					<dim>128</dim>
					<dim>128</dim>
				</port>
				<port id="1"/>
				<port id="2"/>
				<port id="3"/>
				<port id="4"/>
			</input>
			<output>
				<port id="5" precision="FP16">
					<dim>1</dim>
					<dim>64</dim>
					<dim>128</dim>
					<dim>128</dim>
				</port>
			</output>
		</layer>
		<layer id="345" name="bottleneck2_1/dim_red/conv/fq_weights_1/Convert_to_float/Cast_012453_const" type="Const" version="opset1">
			<data element_type="u8" offset="10057" shape="16,64,1,1" size="1024"/>
			<output>
				<port id="1" precision="U8">
					<dim>16</dim>
					<dim>64</dim>
					<dim>1</dim>
					<dim>1</dim>
				</port>
			</output>
		</layer>
		<layer id="346" name="bottleneck2_1/dim_red/conv/fq_weights_1/Convert_to_float" type="Convert" version="opset1">
			<data destination_type="f16"/>
			<input>
				<port id="0">
					<dim>16</dim>
					<dim>64</dim>
					<dim>1</dim>
					<dim>1</dim>
				</port>
			</input>
			<output>
				<port id="1" precision="FP16">
					<dim>16</dim>
					<dim>64</dim>
					<dim>1</dim>
					<dim>1</dim>
				</port>
			</output>
		</layer>
		<layer id="347" name="bottleneck2_1/dim_red/conv/fq_weights_1/Copy/out_low10475_const" type="Const" version="opset1">
			<data element_type="f16" offset="467" shape="1" size="2"/>
			<output>
				<port id="1" precision="FP16">
					<dim>1</dim>
				</port>
			</output>
		</layer>
		<layer id="348" name="bottleneck2_1/dim_red/conv/fq_weights_1/Copy/out_high10476_const" type="Const" version="opset1">
			<data element_type="f16" offset="469" shape="1" size="2"/>
			<output>
				<port id="1" precision="FP16">
					<dim>1</dim>
				</port>
			</output>
		</layer>
		<layer id="349" name="30673071_const" type="Const" version="opset1">
			<data element_type="f16" offset="11081" shape="16,1,1,1" size="32"/>
			<output>
				<port id="1" precision="FP16">
					<dim>16</dim>
					<dim>1</dim>
					<dim>1</dim>
					<dim>1</dim>
				</port>
			</output>
		</layer>
		<layer id="350" name="30683072_const" type="Const" version="opset1">
			<data element_type="f16" offset="11113" shape="16,1,1,1" size="32"/>
			<output>
				<port id="1" precision="FP16">
					<dim>16</dim>
					<dim>1</dim>
					<dim>1</dim>
					<dim>1</dim>
				</port>
			</output>
		</layer>
		<layer id="351" name="bottleneck2_1/dim_red/conv/fq_weights_1" type="FakeQuantize" version="opset1">
			<data levels="255"/>
			<input>
				<port id="0">
					<dim>16</dim>
					<dim>64</dim>
					<dim>1</dim>
					<dim>1</dim>
				</port>
				<port id="1">
					<dim>1</dim>
				</port>
				<port id="2">
					<dim>1</dim>
				</port>
				<port id="3">
					<dim>16</dim>
					<dim>1</dim>
					<dim>1</dim>
					<dim>1</dim>
				</port>
				<port id="4">
					<dim>16</dim>
					<dim>1</dim>
					<dim>1</dim>
					<dim>1</dim>
				</port>
			</input>
			<output>
				<port id="5" precision="FP16">
					<dim>16</dim>
					<dim>64</dim>
					<dim>1</dim>
					<dim>1</dim>
				</port>
			</output>
		</layer>
		<layer id="352" name="bottleneck2_1/dim_red/conv" type="Convolution" version="opset1">
			<data dilations="1,1" output_padding="0,0" pads_begin="0,0" pads_end="0,0" strides="1,1"/>
			<input>
				<port id="0">
					<dim>1</dim>
					<dim>64</dim>
					<dim>128</dim>
					<dim>128</dim>
				</port>
				<port id="1">
					<dim>16</dim>
					<dim>64</dim>
					<dim>1</dim>
					<dim>1</dim>
				</port>
			</input>
			<output>
				<port id="2" precision="FP16">
					<dim>1</dim>
					<dim>16</dim>
					<dim>128</dim>
					<dim>128</dim>
				</port>
			</output>
		</layer>
		<layer id="353" name="data_add_2579125796/copy_const824_const" type="Const" version="opset1">
			<data element_type="f16" offset="11145" shape="1,16,1,1" size="32"/>
			<output>
				<port id="1" precision="FP16">
					<dim>1</dim>
					<dim>16</dim>
					<dim>1</dim>
					<dim>1</dim>
				</port>
			</output>
		</layer>
		<layer id="354" name="bottleneck2_1/dim_red/bn/variance/Fused_Add_" type="Add" version="opset1">
			<input>
				<port id="0">
					<dim>1</dim>
					<dim>16</dim>
					<dim>128</dim>
					<dim>128</dim>
				</port>
				<port id="1">
					<dim>1</dim>
					<dim>16</dim>
					<dim>1</dim>
					<dim>1</dim>
				</port>
			</input>
			<output>
				<port id="2" precision="FP16">
					<dim>1</dim>
					<dim>16</dim>
					<dim>128</dim>
					<dim>128</dim>
				</port>
			</output>
		</layer>
		<layer id="355" name="bottleneck2_1/dim_red/fn" type="Elu" version="opset1">
			<data alpha="1.0"/>
			<input>
				<port id="0">
					<dim>1</dim>
					<dim>16</dim>
					<dim>128</dim>
					<dim>128</dim>
				</port>
			</input>
			<output>
				<port id="1" precision="FP16">
					<dim>1</dim>
					<dim>16</dim>
					<dim>128</dim>
					<dim>128</dim>
				</port>
			</output>
		</layer>
		<layer id="356" name="49154919_const" type="Const" version="opset1">
			<data element_type="f16" offset="11177" shape="1,16,1,1" size="32"/>
			<output>
				<port id="1" precision="FP16">
					<dim>1</dim>
					<dim>16</dim>
					<dim>1</dim>
					<dim>1</dim>
				</port>
			</output>
		</layer>
		<layer id="357" name="49164920_const" type="Const" version="opset1">
			<data element_type="f16" offset="11209" shape="1,16,1,1" size="32"/>
			<output>
				<port id="1" precision="FP16">
					<dim>1</dim>
					<dim>16</dim>
					<dim>1</dim>
					<dim>1</dim>
				</port>
			</output>
		</layer>
		<layer id="358" name="49174921_const" type="Const" version="opset1">
			<data element_type="f16" offset="11177" shape="1,16,1,1" size="32"/>
			<output>
				<port id="1" precision="FP16">
					<dim>1</dim>
					<dim>16</dim>
					<dim>1</dim>
					<dim>1</dim>
				</port>
			</output>
		</layer>
		<layer id="359" name="49184922_const" type="Const" version="opset1">
			<data element_type="f16" offset="11209" shape="1,16,1,1" size="32"/>
			<output>
				<port id="1" precision="FP16">
					<dim>1</dim>
					<dim>16</dim>
					<dim>1</dim>
					<dim>1</dim>
				</port>
			</output>
		</layer>
		<layer id="360" name="bottleneck2_1/inner/dw1/conv/fq_input_0" type="FakeQuantize" version="opset1">
			<data levels="256"/>
			<input>
				<port id="0">
					<dim>1</dim>
					<dim>16</dim>
					<dim>128</dim>
					<dim>128</dim>
				</port>
				<port id="1">
					<dim>1</dim>
					<dim>16</dim>
					<dim>1</dim>
					<dim>1</dim>
				</port>
				<port id="2">
					<dim>1</dim>
					<dim>16</dim>
					<dim>1</dim>
					<dim>1</dim>
				</port>
				<port id="3">
					<dim>1</dim>
					<dim>16</dim>
					<dim>1</dim>
					<dim>1</dim>
				</port>
				<port id="4">
					<dim>1</dim>
					<dim>16</dim>
					<dim>1</dim>
					<dim>1</dim>
				</port>
			</input>
			<output>
				<port id="5" precision="FP16">
					<dim>1</dim>
					<dim>16</dim>
					<dim>128</dim>
					<dim>128</dim>
				</port>
			</output>
		</layer>
		<layer id="361" name="bottleneck2_1/inner/dw1/conv/fq_weights_1/Convert_to_float/Cast_012391_const" type="Const" version="opset1">
			<data element_type="u8" offset="11241" shape="16,1,3,3" size="144"/>
			<output>
				<port id="1" precision="U8">
					<dim>16</dim>
					<dim>1</dim>
					<dim>3</dim>
					<dim>3</dim>
				</port>
			</output>
		</layer>
		<layer id="362" name="bottleneck2_1/inner/dw1/conv/fq_weights_1/Convert_to_float" type="Convert" version="opset1">
			<data destination_type="f16"/>
			<input>
				<port id="0">
					<dim>16</dim>
					<dim>1</dim>
					<dim>3</dim>
					<dim>3</dim>
				</port>
			</input>
			<output>
				<port id="1" precision="FP16">
					<dim>16</dim>
					<dim>1</dim>
					<dim>3</dim>
					<dim>3</dim>
				</port>
			</output>
		</layer>
		<layer id="363" name="bottleneck2_1/inner/dw1/conv/fq_weights_1/Copy/out_low10323_const" type="Const" version="opset1">
			<data element_type="f16" offset="467" shape="1" size="2"/>
			<output>
				<port id="1" precision="FP16">
					<dim>1</dim>
				</port>
			</output>
		</layer>
		<layer id="364" name="bottleneck2_1/inner/dw1/conv/fq_weights_1/Copy/out_high10324_const" type="Const" version="opset1">
			<data element_type="f16" offset="469" shape="1" size="2"/>
			<output>
				<port id="1" precision="FP16">
					<dim>1</dim>
				</port>
			</output>
		</layer>
		<layer id="365" name="49274931_const" type="Const" version="opset1">
			<data element_type="f16" offset="11385" shape="16,1,1,1" size="32"/>
			<output>
				<port id="1" precision="FP16">
					<dim>16</dim>
					<dim>1</dim>
					<dim>1</dim>
					<dim>1</dim>
				</port>
			</output>
		</layer>
		<layer id="366" name="49284932_const" type="Const" version="opset1">
			<data element_type="f16" offset="11417" shape="16,1,1,1" size="32"/>
			<output>
				<port id="1" precision="FP16">
					<dim>16</dim>
					<dim>1</dim>
					<dim>1</dim>
					<dim>1</dim>
				</port>
			</output>
		</layer>
		<layer id="367" name="bottleneck2_1/inner/dw1/conv/fq_weights_1" type="FakeQuantize" version="opset1">
			<data levels="255"/>
			<input>
				<port id="0">
					<dim>16</dim>
					<dim>1</dim>
					<dim>3</dim>
					<dim>3</dim>
				</port>
				<port id="1">
					<dim>1</dim>
				</port>
				<port id="2">
					<dim>1</dim>
				</port>
				<port id="3">
					<dim>16</dim>
					<dim>1</dim>
					<dim>1</dim>
					<dim>1</dim>
				</port>
				<port id="4">
					<dim>16</dim>
					<dim>1</dim>
					<dim>1</dim>
					<dim>1</dim>
				</port>
			</input>
			<output>
				<port id="5" precision="FP16">
					<dim>16</dim>
					<dim>1</dim>
					<dim>3</dim>
					<dim>3</dim>
				</port>
			</output>
		</layer>
		<layer id="368" name="14160/value14162_const" type="Const" version="opset1">
			<data element_type="i64" offset="8565" shape="5" size="40"/>
			<output>
				<port id="1" precision="I64">
					<dim>5</dim>
				</port>
			</output>
		</layer>
		<layer id="369" name="14160" type="Reshape" version="opset1">
			<data special_zero="True"/>
			<input>
				<port id="0">
					<dim>16</dim>
					<dim>1</dim>
					<dim>3</dim>
					<dim>3</dim>
				</port>
				<port id="1">
					<dim>5</dim>
				</port>
			</input>
			<output>
				<port id="2" precision="FP16">
					<dim>16</dim>
					<dim>1</dim>
					<dim>1</dim>
					<dim>3</dim>
					<dim>3</dim>
				</port>
			</output>
		</layer>
		<layer id="370" name="bottleneck2_1/inner/dw1/conv" type="GroupConvolution" version="opset1">
			<data dilations="1,1" output_padding="0,0" pads_begin="1,1" pads_end="1,1" strides="1,1"/>
			<input>
				<port id="0">
					<dim>1</dim>
					<dim>16</dim>
					<dim>128</dim>
					<dim>128</dim>
				</port>
				<port id="1">
					<dim>16</dim>
					<dim>1</dim>
					<dim>1</dim>
					<dim>3</dim>
					<dim>3</dim>
				</port>
			</input>
			<output>
				<port id="2" precision="FP16">
					<dim>1</dim>
					<dim>16</dim>
					<dim>128</dim>
					<dim>128</dim>
				</port>
			</output>
		</layer>
		<layer id="371" name="data_add_2579925804/copy_const829_const" type="Const" version="opset1">
			<data element_type="f16" offset="11449" shape="1,16,1,1" size="32"/>
			<output>
				<port id="1" precision="FP16">
					<dim>1</dim>
					<dim>16</dim>
					<dim>1</dim>
					<dim>1</dim>
				</port>
			</output>
		</layer>
		<layer id="372" name="bottleneck2_1/inner/dw1/bn/variance/Fused_Add_" type="Add" version="opset1">
			<input>
				<port id="0">
					<dim>1</dim>
					<dim>16</dim>
					<dim>128</dim>
					<dim>128</dim>
				</port>
				<port id="1">
					<dim>1</dim>
					<dim>16</dim>
					<dim>1</dim>
					<dim>1</dim>
				</port>
			</input>
			<output>
				<port id="2" precision="FP16">
					<dim>1</dim>
					<dim>16</dim>
					<dim>128</dim>
					<dim>128</dim>
				</port>
			</output>
		</layer>
		<layer id="373" name="bottleneck2_1/inner/dw1/fn" type="Elu" version="opset1">
			<data alpha="1.0"/>
			<input>
				<port id="0">
					<dim>1</dim>
					<dim>16</dim>
					<dim>128</dim>
					<dim>128</dim>
				</port>
			</input>
			<output>
				<port id="1" precision="FP16">
					<dim>1</dim>
					<dim>16</dim>
					<dim>128</dim>
					<dim>128</dim>
				</port>
			</output>
		</layer>
		<layer id="374" name="32953299_const" type="Const" version="opset1">
			<data element_type="f16" offset="11481" shape="" size="2"/>
			<output>
				<port id="1" precision="FP16"/>
			</output>
		</layer>
		<layer id="375" name="32963300_const" type="Const" version="opset1">
			<data element_type="f16" offset="11483" shape="" size="2"/>
			<output>
				<port id="1" precision="FP16"/>
			</output>
		</layer>
		<layer id="376" name="32973301_const" type="Const" version="opset1">
			<data element_type="f16" offset="11481" shape="" size="2"/>
			<output>
				<port id="1" precision="FP16"/>
			</output>
		</layer>
		<layer id="377" name="32983302_const" type="Const" version="opset1">
			<data element_type="f16" offset="11483" shape="" size="2"/>
			<output>
				<port id="1" precision="FP16"/>
			</output>
		</layer>
		<layer id="378" name="bottleneck2_1/dim_inc/conv/fq_input_0" type="FakeQuantize" version="opset1">
			<data levels="256"/>
			<input>
				<port id="0">
					<dim>1</dim>
					<dim>16</dim>
					<dim>128</dim>
					<dim>128</dim>
				</port>
				<port id="1"/>
				<port id="2"/>
				<port id="3"/>
				<port id="4"/>
			</input>
			<output>
				<port id="5" precision="FP16">
					<dim>1</dim>
					<dim>16</dim>
					<dim>128</dim>
					<dim>128</dim>
				</port>
			</output>
		</layer>
		<layer id="379" name="bottleneck2_1/dim_inc/conv/fq_weights_1/Convert_to_float/Cast_012393_const" type="Const" version="opset1">
			<data element_type="u8" offset="11485" shape="64,16,1,1" size="1024"/>
			<output>
				<port id="1" precision="U8">
					<dim>64</dim>
					<dim>16</dim>
					<dim>1</dim>
					<dim>1</dim>
				</port>
			</output>
		</layer>
		<layer id="380" name="bottleneck2_1/dim_inc/conv/fq_weights_1/Convert_to_float" type="Convert" version="opset1">
			<data destination_type="f16"/>
			<input>
				<port id="0">
					<dim>64</dim>
					<dim>16</dim>
					<dim>1</dim>
					<dim>1</dim>
				</port>
			</input>
			<output>
				<port id="1" precision="FP16">
					<dim>64</dim>
					<dim>16</dim>
					<dim>1</dim>
					<dim>1</dim>
				</port>
			</output>
		</layer>
		<layer id="381" name="bottleneck2_1/dim_inc/conv/fq_weights_1/Copy/out_low10379_const" type="Const" version="opset1">
			<data element_type="f16" offset="467" shape="1" size="2"/>
			<output>
				<port id="1" precision="FP16">
					<dim>1</dim>
				</port>
			</output>
		</layer>
		<layer id="382" name="bottleneck2_1/dim_inc/conv/fq_weights_1/Copy/out_high10380_const" type="Const" version="opset1">
			<data element_type="f16" offset="469" shape="1" size="2"/>
			<output>
				<port id="1" precision="FP16">
					<dim>1</dim>
				</port>
			</output>
		</layer>
		<layer id="383" name="33073311_const" type="Const" version="opset1">
			<data element_type="f16" offset="12509" shape="64,1,1,1" size="128"/>
			<output>
				<port id="1" precision="FP16">
					<dim>64</dim>
					<dim>1</dim>
					<dim>1</dim>
					<dim>1</dim>
				</port>
			</output>
		</layer>
		<layer id="384" name="33083312_const" type="Const" version="opset1">
			<data element_type="f16" offset="12637" shape="64,1,1,1" size="128"/>
			<output>
				<port id="1" precision="FP16">
					<dim>64</dim>
					<dim>1</dim>
					<dim>1</dim>
					<dim>1</dim>
				</port>
			</output>
		</layer>
		<layer id="385" name="bottleneck2_1/dim_inc/conv/fq_weights_1" type="FakeQuantize" version="opset1">
			<data levels="255"/>
			<input>
				<port id="0">
					<dim>64</dim>
					<dim>16</dim>
					<dim>1</dim>
					<dim>1</dim>
				</port>
				<port id="1">
					<dim>1</dim>
				</port>
				<port id="2">
					<dim>1</dim>
				</port>
				<port id="3">
					<dim>64</dim>
					<dim>1</dim>
					<dim>1</dim>
					<dim>1</dim>
				</port>
				<port id="4">
					<dim>64</dim>
					<dim>1</dim>
					<dim>1</dim>
					<dim>1</dim>
				</port>
			</input>
			<output>
				<port id="5" precision="FP16">
					<dim>64</dim>
					<dim>16</dim>
					<dim>1</dim>
					<dim>1</dim>
				</port>
			</output>
		</layer>
		<layer id="386" name="bottleneck2_1/dim_inc/conv" type="Convolution" version="opset1">
			<data dilations="1,1" output_padding="0,0" pads_begin="0,0" pads_end="0,0" strides="1,1"/>
			<input>
				<port id="0">
					<dim>1</dim>
					<dim>16</dim>
					<dim>128</dim>
					<dim>128</dim>
				</port>
				<port id="1">
					<dim>64</dim>
					<dim>16</dim>
					<dim>1</dim>
					<dim>1</dim>
				</port>
			</input>
			<output>
				<port id="2" precision="FP16">
					<dim>1</dim>
					<dim>64</dim>
					<dim>128</dim>
					<dim>128</dim>
				</port>
			</output>
		</layer>
		<layer id="387" name="data_add_2580725812/copy_const834_const" type="Const" version="opset1">
			<data element_type="f16" offset="12765" shape="1,64,1,1" size="128"/>
			<output>
				<port id="1" precision="FP16">
					<dim>1</dim>
					<dim>64</dim>
					<dim>1</dim>
					<dim>1</dim>
				</port>
			</output>
		</layer>
		<layer id="388" name="bottleneck2_1/dim_inc/bn/variance/Fused_Add_" type="Add" version="opset1">
			<input>
				<port id="0">
					<dim>1</dim>
					<dim>64</dim>
					<dim>128</dim>
					<dim>128</dim>
				</port>
				<port id="1">
					<dim>1</dim>
					<dim>64</dim>
					<dim>1</dim>
					<dim>1</dim>
				</port>
			</input>
			<output>
				<port id="2" precision="FP16">
					<dim>1</dim>
					<dim>64</dim>
					<dim>128</dim>
					<dim>128</dim>
				</port>
			</output>
		</layer>
		<layer id="389" name="50455049_const" type="Const" version="opset1">
			<data element_type="f16" offset="12893" shape="" size="2"/>
			<output>
				<port id="1" precision="FP16"/>
			</output>
		</layer>
		<layer id="390" name="50465050_const" type="Const" version="opset1">
			<data element_type="f16" offset="12895" shape="" size="2"/>
			<output>
				<port id="1" precision="FP16"/>
			</output>
		</layer>
		<layer id="391" name="50475051_const" type="Const" version="opset1">
			<data element_type="f16" offset="12893" shape="" size="2"/>
			<output>
				<port id="1" precision="FP16"/>
			</output>
		</layer>
		<layer id="392" name="50485052_const" type="Const" version="opset1">
			<data element_type="f16" offset="12895" shape="" size="2"/>
			<output>
				<port id="1" precision="FP16"/>
			</output>
		</layer>
		<layer id="393" name="bottleneck2_1/add/fq_input_1" type="FakeQuantize" version="opset1">
			<data levels="256"/>
			<input>
				<port id="0">
					<dim>1</dim>
					<dim>64</dim>
					<dim>128</dim>
					<dim>128</dim>
				</port>
				<port id="1"/>
				<port id="2"/>
				<port id="3"/>
				<port id="4"/>
			</input>
			<output>
				<port id="5" precision="FP16">
					<dim>1</dim>
					<dim>64</dim>
					<dim>128</dim>
					<dim>128</dim>
				</port>
			</output>
		</layer>
		<layer id="394" name="bottleneck2_1/add" type="Add" version="opset1">
			<input>
				<port id="0">
					<dim>1</dim>
					<dim>64</dim>
					<dim>128</dim>
					<dim>128</dim>
				</port>
				<port id="1">
					<dim>1</dim>
					<dim>64</dim>
					<dim>128</dim>
					<dim>128</dim>
				</port>
			</input>
			<output>
				<port id="2" precision="FP16">
					<dim>1</dim>
					<dim>64</dim>
					<dim>128</dim>
					<dim>128</dim>
				</port>
			</output>
		</layer>
		<layer id="395" name="bottleneck2_1/fn" type="Elu" version="opset1">
			<data alpha="1.0"/>
			<input>
				<port id="0">
					<dim>1</dim>
					<dim>64</dim>
					<dim>128</dim>
					<dim>128</dim>
				</port>
			</input>
			<output>
				<port id="1" precision="FP16">
					<dim>1</dim>
					<dim>64</dim>
					<dim>128</dim>
					<dim>128</dim>
				</port>
			</output>
		</layer>
		<layer id="396" name="46754679_const" type="Const" version="opset1">
			<data element_type="f16" offset="12897" shape="" size="2"/>
			<output>
				<port id="1" precision="FP16"/>
			</output>
		</layer>
		<layer id="397" name="46764680_const" type="Const" version="opset1">
			<data element_type="f16" offset="12899" shape="" size="2"/>
			<output>
				<port id="1" precision="FP16"/>
			</output>
		</layer>
		<layer id="398" name="46774681_const" type="Const" version="opset1">
			<data element_type="f16" offset="12897" shape="" size="2"/>
			<output>
				<port id="1" precision="FP16"/>
			</output>
		</layer>
		<layer id="399" name="46784682_const" type="Const" version="opset1">
			<data element_type="f16" offset="12899" shape="" size="2"/>
			<output>
				<port id="1" precision="FP16"/>
			</output>
		</layer>
		<layer id="400" name="bottleneck2_2/add/fq_input_0" type="FakeQuantize" version="opset1">
			<data levels="256"/>
			<input>
				<port id="0">
					<dim>1</dim>
					<dim>64</dim>
					<dim>128</dim>
					<dim>128</dim>
				</port>
				<port id="1"/>
				<port id="2"/>
				<port id="3"/>
				<port id="4"/>
			</input>
			<output>
				<port id="5" precision="FP16">
					<dim>1</dim>
					<dim>64</dim>
					<dim>128</dim>
					<dim>128</dim>
				</port>
			</output>
		</layer>
		<layer id="401" name="bottleneck2_2/dim_red/conv/fq_weights_1/Convert_to_float/Cast_012607_const" type="Const" version="opset1">
			<data element_type="u8" offset="12901" shape="16,64,1,1" size="1024"/>
			<output>
				<port id="1" precision="U8">
					<dim>16</dim>
					<dim>64</dim>
					<dim>1</dim>
					<dim>1</dim>
				</port>
			</output>
		</layer>
		<layer id="402" name="bottleneck2_2/dim_red/conv/fq_weights_1/Convert_to_float" type="Convert" version="opset1">
			<data destination_type="f16"/>
			<input>
				<port id="0">
					<dim>16</dim>
					<dim>64</dim>
					<dim>1</dim>
					<dim>1</dim>
				</port>
			</input>
			<output>
				<port id="1" precision="FP16">
					<dim>16</dim>
					<dim>64</dim>
					<dim>1</dim>
					<dim>1</dim>
				</port>
			</output>
		</layer>
		<layer id="403" name="bottleneck2_2/dim_red/conv/fq_weights_1/Copy/out_low10835_const" type="Const" version="opset1">
			<data element_type="f16" offset="467" shape="1" size="2"/>
			<output>
				<port id="1" precision="FP16">
					<dim>1</dim>
				</port>
			</output>
		</layer>
		<layer id="404" name="bottleneck2_2/dim_red/conv/fq_weights_1/Copy/out_high10836_const" type="Const" version="opset1">
			<data element_type="f16" offset="469" shape="1" size="2"/>
			<output>
				<port id="1" precision="FP16">
					<dim>1</dim>
				</port>
			</output>
		</layer>
		<layer id="405" name="26572661_const" type="Const" version="opset1">
			<data element_type="f16" offset="13925" shape="16,1,1,1" size="32"/>
			<output>
				<port id="1" precision="FP16">
					<dim>16</dim>
					<dim>1</dim>
					<dim>1</dim>
					<dim>1</dim>
				</port>
			</output>
		</layer>
		<layer id="406" name="26582662_const" type="Const" version="opset1">
			<data element_type="f16" offset="13957" shape="16,1,1,1" size="32"/>
			<output>
				<port id="1" precision="FP16">
					<dim>16</dim>
					<dim>1</dim>
					<dim>1</dim>
					<dim>1</dim>
				</port>
			</output>
		</layer>
		<layer id="407" name="bottleneck2_2/dim_red/conv/fq_weights_1" type="FakeQuantize" version="opset1">
			<data levels="255"/>
			<input>
				<port id="0">
					<dim>16</dim>
					<dim>64</dim>
					<dim>1</dim>
					<dim>1</dim>
				</port>
				<port id="1">
					<dim>1</dim>
				</port>
				<port id="2">
					<dim>1</dim>
				</port>
				<port id="3">
					<dim>16</dim>
					<dim>1</dim>
					<dim>1</dim>
					<dim>1</dim>
				</port>
				<port id="4">
					<dim>16</dim>
					<dim>1</dim>
					<dim>1</dim>
					<dim>1</dim>
				</port>
			</input>
			<output>
				<port id="5" precision="FP16">
					<dim>16</dim>
					<dim>64</dim>
					<dim>1</dim>
					<dim>1</dim>
				</port>
			</output>
		</layer>
		<layer id="408" name="bottleneck2_2/dim_red/conv" type="Convolution" version="opset1">
			<data dilations="1,1" output_padding="0,0" pads_begin="0,0" pads_end="0,0" strides="1,1"/>
			<input>
				<port id="0">
					<dim>1</dim>
					<dim>64</dim>
					<dim>128</dim>
					<dim>128</dim>
				</port>
				<port id="1">
					<dim>16</dim>
					<dim>64</dim>
					<dim>1</dim>
					<dim>1</dim>
				</port>
			</input>
			<output>
				<port id="2" precision="FP16">
					<dim>1</dim>
					<dim>16</dim>
					<dim>128</dim>
					<dim>128</dim>
				</port>
			</output>
		</layer>
		<layer id="409" name="data_add_2581525820/copy_const840_const" type="Const" version="opset1">
			<data element_type="f16" offset="13989" shape="1,16,1,1" size="32"/>
			<output>
				<port id="1" precision="FP16">
					<dim>1</dim>
					<dim>16</dim>
					<dim>1</dim>
					<dim>1</dim>
				</port>
			</output>
		</layer>
		<layer id="410" name="bottleneck2_2/dim_red/bn/variance/Fused_Add_" type="Add" version="opset1">
			<input>
				<port id="0">
					<dim>1</dim>
					<dim>16</dim>
					<dim>128</dim>
					<dim>128</dim>
				</port>
				<port id="1">
					<dim>1</dim>
					<dim>16</dim>
					<dim>1</dim>
					<dim>1</dim>
				</port>
			</input>
			<output>
				<port id="2" precision="FP16">
					<dim>1</dim>
					<dim>16</dim>
					<dim>128</dim>
					<dim>128</dim>
				</port>
			</output>
		</layer>
		<layer id="411" name="bottleneck2_2/dim_red/fn" type="Elu" version="opset1">
			<data alpha="1.0"/>
			<input>
				<port id="0">
					<dim>1</dim>
					<dim>16</dim>
					<dim>128</dim>
					<dim>128</dim>
				</port>
			</input>
			<output>
				<port id="1" precision="FP16">
					<dim>1</dim>
					<dim>16</dim>
					<dim>128</dim>
					<dim>128</dim>
				</port>
			</output>
		</layer>
		<layer id="412" name="41554159_const" type="Const" version="opset1">
			<data element_type="f16" offset="14021" shape="1,16,1,1" size="32"/>
			<output>
				<port id="1" precision="FP16">
					<dim>1</dim>
					<dim>16</dim>
					<dim>1</dim>
					<dim>1</dim>
				</port>
			</output>
		</layer>
		<layer id="413" name="41564160_const" type="Const" version="opset1">
			<data element_type="f16" offset="14053" shape="1,16,1,1" size="32"/>
			<output>
				<port id="1" precision="FP16">
					<dim>1</dim>
					<dim>16</dim>
					<dim>1</dim>
					<dim>1</dim>
				</port>
			</output>
		</layer>
…
		<edge from-layer="1707" from-port="2" to-layer="1709" to-port="0"/>
		<edge from-layer="1708" from-port="1" to-layer="1709" to-port="1"/>
		<edge from-layer="1709" from-port="2" to-layer="1710" to-port="0"/>
		<edge from-layer="1710" from-port="1" to-layer="1715" to-port="0"/>
		<edge from-layer="1711" from-port="1" to-layer="1715" to-port="1"/>
		<edge from-layer="1712" from-port="1" to-layer="1715" to-port="2"/>
		<edge from-layer="1713" from-port="1" to-layer="1715" to-port="3"/>
		<edge from-layer="1714" from-port="1" to-layer="1715" to-port="4"/>
		<edge from-layer="1716" from-port="1" to-layer="1717" to-port="0"/>
		<edge from-layer="1717" from-port="1" to-layer="1722" to-port="0"/>
		<edge from-layer="1718" from-port="1" to-layer="1722" to-port="1"/>
		<edge from-layer="1719" from-port="1" to-layer="1722" to-port="2"/>
		<edge from-layer="1720" from-port="1" to-layer="1722" to-port="3"/>
		<edge from-layer="1721" from-port="1" to-layer="1722" to-port="4"/>
		<edge from-layer="1722" from-port="5" to-layer="1724" to-port="0"/>
		<edge from-layer="1723" from-port="1" to-layer="1724" to-port="1"/>
		<edge from-layer="1715" from-port="5" to-layer="1725" to-port="0"/>
		<edge from-layer="1724" from-port="2" to-layer="1725" to-port="1"/>
		<edge from-layer="1725" from-port="2" to-layer="1727" to-port="0"/>
		<edge from-layer="1726" from-port="1" to-layer="1727" to-port="1"/>
		<edge from-layer="1727" from-port="2" to-layer="1728" to-port="0"/>
		<edge from-layer="1728" from-port="1" to-layer="1733" to-port="0"/>
		<edge from-layer="1729" from-port="1" to-layer="1733" to-port="1"/>
		<edge from-layer="1730" from-port="1" to-layer="1733" to-port="2"/>
		<edge from-layer="1731" from-port="1" to-layer="1733" to-port="3"/>
		<edge from-layer="1732" from-port="1" to-layer="1733" to-port="4"/>
		<edge from-layer="1734" from-port="1" to-layer="1735" to-port="0"/>
		<edge from-layer="1735" from-port="1" to-layer="1740" to-port="0"/>
		<edge from-layer="1736" from-port="1" to-layer="1740" to-port="1"/>
		<edge from-layer="1737" from-port="1" to-layer="1740" to-port="2"/>
		<edge from-layer="1738" from-port="1" to-layer="1740" to-port="3"/>
		<edge from-layer="1739" from-port="1" to-layer="1740" to-port="4"/>
		<edge from-layer="1733" from-port="5" to-layer="1741" to-port="0"/>
		<edge from-layer="1740" from-port="5" to-layer="1741" to-port="1"/>
		<edge from-layer="1741" from-port="2" to-layer="1743" to-port="0"/>
		<edge from-layer="1742" from-port="1" to-layer="1743" to-port="1"/>
		<edge from-layer="1743" from-port="2" to-layer="1748" to-port="0"/>
		<edge from-layer="1744" from-port="1" to-layer="1748" to-port="1"/>
		<edge from-layer="1745" from-port="1" to-layer="1748" to-port="2"/>
		<edge from-layer="1746" from-port="1" to-layer="1748" to-port="3"/>
		<edge from-layer="1747" from-port="1" to-layer="1748" to-port="4"/>
		<edge from-layer="1699" from-port="5" to-layer="1749" to-port="0"/>
		<edge from-layer="1748" from-port="5" to-layer="1749" to-port="1"/>
		<edge from-layer="1749" from-port="2" to-layer="1750" to-port="0"/>
		<edge from-layer="1750" from-port="1" to-layer="1755" to-port="0"/>
		<edge from-layer="1751" from-port="1" to-layer="1755" to-port="1"/>
		<edge from-layer="1752" from-port="1" to-layer="1755" to-port="2"/>
		<edge from-layer="1753" from-port="1" to-layer="1755" to-port="3"/>
		<edge from-layer="1754" from-port="1" to-layer="1755" to-port="4"/>
		<edge from-layer="1756" from-port="1" to-layer="1757" to-port="0"/>
		<edge from-layer="1757" from-port="1" to-layer="1762" to-port="0"/>
		<edge from-layer="1758" from-port="1" to-layer="1762" to-port="1"/>
		<edge from-layer="1759" from-port="1" to-layer="1762" to-port="2"/>
		<edge from-layer="1760" from-port="1" to-layer="1762" to-port="3"/>
		<edge from-layer="1761" from-port="1" to-layer="1762" to-port="4"/>
		<edge from-layer="1755" from-port="5" to-layer="1763" to-port="0"/>
		<edge from-layer="1762" from-port="5" to-layer="1763" to-port="1"/>
		<edge from-layer="1763" from-port="2" to-layer="1765" to-port="0"/>
		<edge from-layer="1764" from-port="1" to-layer="1765" to-port="1"/>
		<edge from-layer="1765" from-port="2" to-layer="1766" to-port="0"/>
		<edge from-layer="1766" from-port="1" to-layer="1771" to-port="0"/>
		<edge from-layer="1767" from-port="1" to-layer="1771" to-port="1"/>
		<edge from-layer="1768" from-port="1" to-layer="1771" to-port="2"/>
		<edge from-layer="1769" from-port="1" to-layer="1771" to-port="3"/>
		<edge from-layer="1770" from-port="1" to-layer="1771" to-port="4"/>
		<edge from-layer="1772" from-port="1" to-layer="1773" to-port="0"/>
		<edge from-layer="1773" from-port="1" to-layer="1778" to-port="0"/>
		<edge from-layer="1774" from-port="1" to-layer="1778" to-port="1"/>
		<edge from-layer="1775" from-port="1" to-layer="1778" to-port="2"/>
		<edge from-layer="1776" from-port="1" to-layer="1778" to-port="3"/>
		<edge from-layer="1777" from-port="1" to-layer="1778" to-port="4"/>
		<edge from-layer="1778" from-port="5" to-layer="1780" to-port="0"/>
		<edge from-layer="1779" from-port="1" to-layer="1780" to-port="1"/>
		<edge from-layer="1771" from-port="5" to-layer="1781" to-port="0"/>
		<edge from-layer="1780" from-port="2" to-layer="1781" to-port="1"/>
		<edge from-layer="1781" from-port="2" to-layer="1783" to-port="0"/>
		<edge from-layer="1782" from-port="1" to-layer="1783" to-port="1"/>
		<edge from-layer="1783" from-port="2" to-layer="1784" to-port="0"/>
		<edge from-layer="1784" from-port="1" to-layer="1789" to-port="0"/>
		<edge from-layer="1785" from-port="1" to-layer="1789" to-port="1"/>
		<edge from-layer="1786" from-port="1" to-layer="1789" to-port="2"/>
		<edge from-layer="1787" from-port="1" to-layer="1789" to-port="3"/>
		<edge from-layer="1788" from-port="1" to-layer="1789" to-port="4"/>
		<edge from-layer="1790" from-port="1" to-layer="1791" to-port="0"/>
		<edge from-layer="1791" from-port="1" to-layer="1796" to-port="0"/>
		<edge from-layer="1792" from-port="1" to-layer="1796" to-port="1"/>
		<edge from-layer="1793" from-port="1" to-layer="1796" to-port="2"/>
		<edge from-layer="1794" from-port="1" to-layer="1796" to-port="3"/>
		<edge from-layer="1795" from-port="1" to-layer="1796" to-port="4"/>
		<edge from-layer="1789" from-port="5" to-layer="1797" to-port="0"/>
		<edge from-layer="1796" from-port="5" to-layer="1797" to-port="1"/>
		<edge from-layer="1797" from-port="2" to-layer="1799" to-port="0"/>
		<edge from-layer="1798" from-port="1" to-layer="1799" to-port="1"/>
		<edge from-layer="1799" from-port="2" to-layer="1804" to-port="0"/>
		<edge from-layer="1800" from-port="1" to-layer="1804" to-port="1"/>
		<edge from-layer="1801" from-port="1" to-layer="1804" to-port="2"/>
		<edge from-layer="1802" from-port="1" to-layer="1804" to-port="3"/>
		<edge from-layer="1803" from-port="1" to-layer="1804" to-port="4"/>
		<edge from-layer="1755" from-port="5" to-layer="1805" to-port="0"/>
		<edge from-layer="1804" from-port="5" to-layer="1805" to-port="1"/>
		<edge from-layer="1805" from-port="2" to-layer="1806" to-port="0"/>
		<edge from-layer="1806" from-port="1" to-layer="1811" to-port="0"/>
		<edge from-layer="1807" from-port="1" to-layer="1811" to-port="1"/>
		<edge from-layer="1808" from-port="1" to-layer="1811" to-port="2"/>
		<edge from-layer="1809" from-port="1" to-layer="1811" to-port="3"/>
		<edge from-layer="1810" from-port="1" to-layer="1811" to-port="4"/>
		<edge from-layer="1812" from-port="1" to-layer="1813" to-port="0"/>
		<edge from-layer="1813" from-port="1" to-layer="1818" to-port="0"/>
		<edge from-layer="1814" from-port="1" to-layer="1818" to-port="1"/>
		<edge from-layer="1815" from-port="1" to-layer="1818" to-port="2"/>
		<edge from-layer="1816" from-port="1" to-layer="1818" to-port="3"/>
		<edge from-layer="1817" from-port="1" to-layer="1818" to-port="4"/>
		<edge from-layer="1811" from-port="5" to-layer="1819" to-port="0"/>
		<edge from-layer="1818" from-port="5" to-layer="1819" to-port="1"/>
		<edge from-layer="1819" from-port="2" to-layer="1821" to-port="0"/>
		<edge from-layer="1820" from-port="1" to-layer="1821" to-port="1"/>
		<edge from-layer="1821" from-port="2" to-layer="1822" to-port="0"/>
		<edge from-layer="1822" from-port="1" to-layer="1827" to-port="0"/>
		<edge from-layer="1823" from-port="1" to-layer="1827" to-port="1"/>
		<edge from-layer="1824" from-port="1" to-layer="1827" to-port="2"/>
		<edge from-layer="1825" from-port="1" to-layer="1827" to-port="3"/>
		<edge from-layer="1826" from-port="1" to-layer="1827" to-port="4"/>
		<edge from-layer="1828" from-port="1" to-layer="1829" to-port="0"/>
		<edge from-layer="1829" from-port="1" to-layer="1834" to-port="0"/>
		<edge from-layer="1830" from-port="1" to-layer="1834" to-port="1"/>
		<edge from-layer="1831" from-port="1" to-layer="1834" to-port="2"/>
		<edge from-layer="1832" from-port="1" to-layer="1834" to-port="3"/>
		<edge from-layer="1833" from-port="1" to-layer="1834" to-port="4"/>
		<edge from-layer="1834" from-port="5" to-layer="1836" to-port="0"/>
		<edge from-layer="1835" from-port="1" to-layer="1836" to-port="1"/>
		<edge from-layer="1827" from-port="5" to-layer="1837" to-port="0"/>
		<edge from-layer="1836" from-port="2" to-layer="1837" to-port="1"/>
		<edge from-layer="1837" from-port="2" to-layer="1839" to-port="0"/>
		<edge from-layer="1838" from-port="1" to-layer="1839" to-port="1"/>
		<edge from-layer="1839" from-port="2" to-layer="1840" to-port="0"/>
		<edge from-layer="1840" from-port="1" to-layer="1845" to-port="0"/>
		<edge from-layer="1841" from-port="1" to-layer="1845" to-port="1"/>
		<edge from-layer="1842" from-port="1" to-layer="1845" to-port="2"/>
		<edge from-layer="1843" from-port="1" to-layer="1845" to-port="3"/>
		<edge from-layer="1844" from-port="1" to-layer="1845" to-port="4"/>
		<edge from-layer="1846" from-port="1" to-layer="1847" to-port="0"/>
		<edge from-layer="1847" from-port="1" to-layer="1852" to-port="0"/>
		<edge from-layer="1848" from-port="1" to-layer="1852" to-port="1"/>
		<edge from-layer="1849" from-port="1" to-layer="1852" to-port="2"/>
		<edge from-layer="1850" from-port="1" to-layer="1852" to-port="3"/>
		<edge from-layer="1851" from-port="1" to-layer="1852" to-port="4"/>
		<edge from-layer="1845" from-port="5" to-layer="1853" to-port="0"/>
		<edge from-layer="1852" from-port="5" to-layer="1853" to-port="1"/>
		<edge from-layer="1853" from-port="2" to-layer="1855" to-port="0"/>
		<edge from-layer="1854" from-port="1" to-layer="1855" to-port="1"/>
		<edge from-layer="1855" from-port="2" to-layer="1860" to-port="0"/>
		<edge from-layer="1856" from-port="1" to-layer="1860" to-port="1"/>
		<edge from-layer="1857" from-port="1" to-layer="1860" to-port="2"/>
		<edge from-layer="1858" from-port="1" to-layer="1860" to-port="3"/>
		<edge from-layer="1859" from-port="1" to-layer="1860" to-port="4"/>
		<edge from-layer="1811" from-port="5" to-layer="1861" to-port="0"/>
		<edge from-layer="1860" from-port="5" to-layer="1861" to-port="1"/>
		<edge from-layer="1861" from-port="2" to-layer="1862" to-port="0"/>
		<edge from-layer="1862" from-port="1" to-layer="1867" to-port="0"/>
		<edge from-layer="1863" from-port="1" to-layer="1867" to-port="1"/>
		<edge from-layer="1864" from-port="1" to-layer="1867" to-port="2"/>
		<edge from-layer="1865" from-port="1" to-layer="1867" to-port="3"/>
		<edge from-layer="1866" from-port="1" to-layer="1867" to-port="4"/>
		<edge from-layer="1868" from-port="1" to-layer="1869" to-port="0"/>
		<edge from-layer="1869" from-port="1" to-layer="1874" to-port="0"/>
		<edge from-layer="1870" from-port="1" to-layer="1874" to-port="1"/>
		<edge from-layer="1871" from-port="1" to-layer="1874" to-port="2"/>
		<edge from-layer="1872" from-port="1" to-layer="1874" to-port="3"/>
		<edge from-layer="1873" from-port="1" to-layer="1874" to-port="4"/>
		<edge from-layer="1867" from-port="5" to-layer="1875" to-port="0"/>
		<edge from-layer="1874" from-port="5" to-layer="1875" to-port="1"/>
		<edge from-layer="1875" from-port="2" to-layer="1877" to-port="0"/>
		<edge from-layer="1876" from-port="1" to-layer="1877" to-port="1"/>
		<edge from-layer="1877" from-port="2" to-layer="1878" to-port="0"/>
		<edge from-layer="1878" from-port="1" to-layer="1883" to-port="0"/>
		<edge from-layer="1879" from-port="1" to-layer="1883" to-port="1"/>
		<edge from-layer="1880" from-port="1" to-layer="1883" to-port="2"/>
		<edge from-layer="1881" from-port="1" to-layer="1883" to-port="3"/>
		<edge from-layer="1882" from-port="1" to-layer="1883" to-port="4"/>
		<edge from-layer="1884" from-port="1" to-layer="1885" to-port="0"/>
		<edge from-layer="1885" from-port="1" to-layer="1890" to-port="0"/>
		<edge from-layer="1886" from-port="1" to-layer="1890" to-port="1"/>
		<edge from-layer="1887" from-port="1" to-layer="1890" to-port="2"/>
		<edge from-layer="1888" from-port="1" to-layer="1890" to-port="3"/>
		<edge from-layer="1889" from-port="1" to-layer="1890" to-port="4"/>
		<edge from-layer="1890" from-port="5" to-layer="1892" to-port="0"/>
		<edge from-layer="1891" from-port="1" to-layer="1892" to-port="1"/>
		<edge from-layer="1883" from-port="5" to-layer="1893" to-port="0"/>
		<edge from-layer="1892" from-port="2" to-layer="1893" to-port="1"/>
		<edge from-layer="1893" from-port="2" to-layer="1895" to-port="0"/>
		<edge from-layer="1894" from-port="1" to-layer="1895" to-port="1"/>
		<edge from-layer="1895" from-port="2" to-layer="1896" to-port="0"/>
		<edge from-layer="1896" from-port="1" to-layer="1901" to-port="0"/>
		<edge from-layer="1897" from-port="1" to-layer="1901" to-port="1"/>
		<edge from-layer="1898" from-port="1" to-layer="1901" to-port="2"/>
		<edge from-layer="1899" from-port="1" to-layer="1901" to-port="3"/>
		<edge from-layer="1900" from-port="1" to-layer="1901" to-port="4"/>
		<edge from-layer="1902" from-port="1" to-layer="1903" to-port="0"/>
		<edge from-layer="1903" from-port="1" to-layer="1908" to-port="0"/>
		<edge from-layer="1904" from-port="1" to-layer="1908" to-port="1"/>
		<edge from-layer="1905" from-port="1" to-layer="1908" to-port="2"/>
		<edge from-layer="1906" from-port="1" to-layer="1908" to-port="3"/>
		<edge from-layer="1907" from-port="1" to-layer="1908" to-port="4"/>
		<edge from-layer="1901" from-port="5" to-layer="1909" to-port="0"/>
		<edge from-layer="1908" from-port="5" to-layer="1909" to-port="1"/>
		<edge from-layer="1909" from-port="2" to-layer="1911" to-port="0"/>
		<edge from-layer="1910" from-port="1" to-layer="1911" to-port="1"/>
		<edge from-layer="1911" from-port="2" to-layer="1916" to-port="0"/>
		<edge from-layer="1912" from-port="1" to-layer="1916" to-port="1"/>
		<edge from-layer="1913" from-port="1" to-layer="1916" to-port="2"/>
		<edge from-layer="1914" from-port="1" to-layer="1916" to-port="3"/>
		<edge from-layer="1915" from-port="1" to-layer="1916" to-port="4"/>
		<edge from-layer="1867" from-port="5" to-layer="1917" to-port="0"/>
		<edge from-layer="1916" from-port="5" to-layer="1917" to-port="1"/>
		<edge from-layer="1917" from-port="2" to-layer="1918" to-port="0"/>
		<edge from-layer="1918" from-port="1" to-layer="1923" to-port="0"/>
		<edge from-layer="1919" from-port="1" to-layer="1923" to-port="1"/>
		<edge from-layer="1920" from-port="1" to-layer="1923" to-port="2"/>
		<edge from-layer="1921" from-port="1" to-layer="1923" to-port="3"/>
		<edge from-layer="1922" from-port="1" to-layer="1923" to-port="4"/>
		<edge from-layer="1924" from-port="1" to-layer="1925" to-port="0"/>
		<edge from-layer="1925" from-port="1" to-layer="1930" to-port="0"/>
		<edge from-layer="1926" from-port="1" to-layer="1930" to-port="1"/>
		<edge from-layer="1927" from-port="1" to-layer="1930" to-port="2"/>
		<edge from-layer="1928" from-port="1" to-layer="1930" to-port="3"/>
		<edge from-layer="1929" from-port="1" to-layer="1930" to-port="4"/>
		<edge from-layer="1923" from-port="5" to-layer="1931" to-port="0"/>
		<edge from-layer="1930" from-port="5" to-layer="1931" to-port="1"/>
		<edge from-layer="1931" from-port="2" to-layer="1933" to-port="0"/>
		<edge from-layer="1932" from-port="1" to-layer="1933" to-port="1"/>
		<edge from-layer="1933" from-port="2" to-layer="1934" to-port="0"/>
		<edge from-layer="1934" from-port="1" to-layer="1939" to-port="0"/>
		<edge from-layer="1935" from-port="1" to-layer="1939" to-port="1"/>
		<edge from-layer="1936" from-port="1" to-layer="1939" to-port="2"/>
		<edge from-layer="1937" from-port="1" to-layer="1939" to-port="3"/>
		<edge from-layer="1938" from-port="1" to-layer="1939" to-port="4"/>
		<edge from-layer="1940" from-port="1" to-layer="1941" to-port="0"/>
		<edge from-layer="1941" from-port="1" to-layer="1946" to-port="0"/>
		<edge from-layer="1942" from-port="1" to-layer="1946" to-port="1"/>
		<edge from-layer="1943" from-port="1" to-layer="1946" to-port="2"/>
		<edge from-layer="1944" from-port="1" to-layer="1946" to-port="3"/>
		<edge from-layer="1945" from-port="1" to-layer="1946" to-port="4"/>
		<edge from-layer="1946" from-port="5" to-layer="1948" to-port="0"/>
		<edge from-layer="1947" from-port="1" to-layer="1948" to-port="1"/>
		<edge from-layer="1939" from-port="5" to-layer="1949" to-port="0"/>
		<edge from-layer="1948" from-port="2" to-layer="1949" to-port="1"/>
		<edge from-layer="1949" from-port="2" to-layer="1951" to-port="0"/>
		<edge from-layer="1950" from-port="1" to-layer="1951" to-port="1"/>
		<edge from-layer="1951" from-port="2" to-layer="1952" to-port="0"/>
		<edge from-layer="1952" from-port="1" to-layer="1957" to-port="0"/>
		<edge from-layer="1953" from-port="1" to-layer="1957" to-port="1"/>
		<edge from-layer="1954" from-port="1" to-layer="1957" to-port="2"/>
		<edge from-layer="1955" from-port="1" to-layer="1957" to-port="3"/>
		<edge from-layer="1956" from-port="1" to-layer="1957" to-port="4"/>
		<edge from-layer="1958" from-port="1" to-layer="1959" to-port="0"/>
		<edge from-layer="1959" from-port="1" to-layer="1964" to-port="0"/>
		<edge from-layer="1960" from-port="1" to-layer="1964" to-port="1"/>
		<edge from-layer="1961" from-port="1" to-layer="1964" to-port="2"/>
		<edge from-layer="1962" from-port="1" to-layer="1964" to-port="3"/>
		<edge from-layer="1963" from-port="1" to-layer="1964" to-port="4"/>
		<edge from-layer="1957" from-port="5" to-layer="1965" to-port="0"/>
		<edge from-layer="1964" from-port="5" to-layer="1965" to-port="1"/>
		<edge from-layer="1965" from-port="2" to-layer="1967" to-port="0"/>
		<edge from-layer="1966" from-port="1" to-layer="1967" to-port="1"/>
		<edge from-layer="1967" from-port="2" to-layer="1972" to-port="0"/>
		<edge from-layer="1968" from-port="1" to-layer="1972" to-port="1"/>
		<edge from-layer="1969" from-port="1" to-layer="1972" to-port="2"/>
		<edge from-layer="1970" from-port="1" to-layer="1972" to-port="3"/>
		<edge from-layer="1971" from-port="1" to-layer="1972" to-port="4"/>
		<edge from-layer="1923" from-port="5" to-layer="1973" to-port="0"/>
		<edge from-layer="1972" from-port="5" to-layer="1973" to-port="1"/>
		<edge from-layer="1973" from-port="2" to-layer="1974" to-port="0"/>
		<edge from-layer="1974" from-port="1" to-layer="1979" to-port="0"/>
		<edge from-layer="1975" from-port="1" to-layer="1979" to-port="1"/>
		<edge from-layer="1976" from-port="1" to-layer="1979" to-port="2"/>
		<edge from-layer="1977" from-port="1" to-layer="1979" to-port="3"/>
		<edge from-layer="1978" from-port="1" to-layer="1979" to-port="4"/>
		<edge from-layer="1980" from-port="1" to-layer="1981" to-port="0"/>
		<edge from-layer="1981" from-port="1" to-layer="1986" to-port="0"/>
		<edge from-layer="1982" from-port="1" to-layer="1986" to-port="1"/>
		<edge from-layer="1983" from-port="1" to-layer="1986" to-port="2"/>
		<edge from-layer="1984" from-port="1" to-layer="1986" to-port="3"/>
		<edge from-layer="1985" from-port="1" to-layer="1986" to-port="4"/>
		<edge from-layer="1979" from-port="5" to-layer="1987" to-port="0"/>
		<edge from-layer="1986" from-port="5" to-layer="1987" to-port="1"/>
		<edge from-layer="1987" from-port="2" to-layer="1989" to-port="0"/>
		<edge from-layer="1988" from-port="1" to-layer="1989" to-port="1"/>
		<edge from-layer="1989" from-port="2" to-layer="1990" to-port="0"/>
		<edge from-layer="1990" from-port="1" to-layer="1995" to-port="0"/>
		<edge from-layer="1991" from-port="1" to-layer="1995" to-port="1"/>
		<edge from-layer="1992" from-port="1" to-layer="1995" to-port="2"/>
		<edge from-layer="1993" from-port="1" to-layer="1995" to-port="3"/>
		<edge from-layer="1994" from-port="1" to-layer="1995" to-port="4"/>
		<edge from-layer="1996" from-port="1" to-layer="1997" to-port="0"/>
		<edge from-layer="1997" from-port="1" to-layer="2002" to-port="0"/>
		<edge from-layer="1998" from-port="1" to-layer="2002" to-port="1"/>
		<edge from-layer="1999" from-port="1" to-layer="2002" to-port="2"/>
		<edge from-layer="2000" from-port="1" to-layer="2002" to-port="3"/>
		<edge from-layer="2001" from-port="1" to-layer="2002" to-port="4"/>
		<edge from-layer="2002" from-port="5" to-layer="2004" to-port="0"/>
		<edge from-layer="2003" from-port="1" to-layer="2004" to-port="1"/>
		<edge from-layer="1995" from-port="5" to-layer="2005" to-port="0"/>
		<edge from-layer="2004" from-port="2" to-layer="2005" to-port="1"/>
		<edge from-layer="2005" from-port="2" to-layer="2007" to-port="0"/>
		<edge from-layer="2006" from-port="1" to-layer="2007" to-port="1"/>
		<edge from-layer="2007" from-port="2" to-layer="2008" to-port="0"/>
		<edge from-layer="2008" from-port="1" to-layer="2013" to-port="0"/>
		<edge from-layer="2009" from-port="1" to-layer="2013" to-port="1"/>
		<edge from-layer="2010" from-port="1" to-layer="2013" to-port="2"/>
		<edge from-layer="2011" from-port="1" to-layer="2013" to-port="3"/>
		<edge from-layer="2012" from-port="1" to-layer="2013" to-port="4"/>
		<edge from-layer="2014" from-port="1" to-layer="2015" to-port="0"/>
		<edge from-layer="2015" from-port="1" to-layer="2020" to-port="0"/>
		<edge from-layer="2016" from-port="1" to-layer="2020" to-port="1"/>
		<edge from-layer="2017" from-port="1" to-layer="2020" to-port="2"/>
		<edge from-layer="2018" from-port="1" to-layer="2020" to-port="3"/>
		<edge from-layer="2019" from-port="1" to-layer="2020" to-port="4"/>
		<edge from-layer="2013" from-port="5" to-layer="2021" to-port="0"/>
		<edge from-layer="2020" from-port="5" to-layer="2021" to-port="1"/>
		<edge from-layer="2021" from-port="2" to-layer="2023" to-port="0"/>
		<edge from-layer="2022" from-port="1" to-layer="2023" to-port="1"/>
		<edge from-layer="2023" from-port="2" to-layer="2028" to-port="0"/>
		<edge from-layer="2024" from-port="1" to-layer="2028" to-port="1"/>
		<edge from-layer="2025" from-port="1" to-layer="2028" to-port="2"/>
		<edge from-layer="2026" from-port="1" to-layer="2028" to-port="3"/>
		<edge from-layer="2027" from-port="1" to-layer="2028" to-port="4"/>
		<edge from-layer="1979" from-port="5" to-layer="2029" to-port="0"/>
		<edge from-layer="2028" from-port="5" to-layer="2029" to-port="1"/>
		<edge from-layer="2029" from-port="2" to-layer="2030" to-port="0"/>
		<edge from-layer="2030" from-port="1" to-layer="2035" to-port="0"/>
		<edge from-layer="2031" from-port="1" to-layer="2035" to-port="1"/>
		<edge from-layer="2032" from-port="1" to-layer="2035" to-port="2"/>
		<edge from-layer="2033" from-port="1" to-layer="2035" to-port="3"/>
		<edge from-layer="2034" from-port="1" to-layer="2035" to-port="4"/>
		<edge from-layer="2036" from-port="1" to-layer="2037" to-port="0"/>
		<edge from-layer="2037" from-port="1" to-layer="2042" to-port="0"/>
		<edge from-layer="2038" from-port="1" to-layer="2042" to-port="1"/>
		<edge from-layer="2039" from-port="1" to-layer="2042" to-port="2"/>
		<edge from-layer="2040" from-port="1" to-layer="2042" to-port="3"/>
		<edge from-layer="2041" from-port="1" to-layer="2042" to-port="4"/>
		<edge from-layer="2035" from-port="5" to-layer="2043" to-port="0"/>
		<edge from-layer="2042" from-port="5" to-layer="2043" to-port="1"/>
		<edge from-layer="2043" from-port="2" to-layer="2045" to-port="0"/>
		<edge from-layer="2044" from-port="1" to-layer="2045" to-port="1"/>
		<edge from-layer="2045" from-port="2" to-layer="2046" to-port="0"/>
		<edge from-layer="2046" from-port="1" to-layer="2051" to-port="0"/>
		<edge from-layer="2047" from-port="1" to-layer="2051" to-port="1"/>
		<edge from-layer="2048" from-port="1" to-layer="2051" to-port="2"/>
		<edge from-layer="2049" from-port="1" to-layer="2051" to-port="3"/>
		<edge from-layer="2050" from-port="1" to-layer="2051" to-port="4"/>
		<edge from-layer="2052" from-port="1" to-layer="2053" to-port="0"/>
		<edge from-layer="2053" from-port="1" to-layer="2058" to-port="0"/>
		<edge from-layer="2054" from-port="1" to-layer="2058" to-port="1"/>
		<edge from-layer="2055" from-port="1" to-layer="2058" to-port="2"/>
		<edge from-layer="2056" from-port="1" to-layer="2058" to-port="3"/>
		<edge from-layer="2057" from-port="1" to-layer="2058" to-port="4"/>
		<edge from-layer="2058" from-port="5" to-layer="2060" to-port="0"/>
		<edge from-layer="2059" from-port="1" to-layer="2060" to-port="1"/>
		<edge from-layer="2051" from-port="5" to-layer="2061" to-port="0"/>
		<edge from-layer="2060" from-port="2" to-layer="2061" to-port="1"/>
		<edge from-layer="2061" from-port="2" to-layer="2063" to-port="0"/>
		<edge from-layer="2062" from-port="1" to-layer="2063" to-port="1"/>
		<edge from-layer="2063" from-port="2" to-layer="2064" to-port="0"/>
		<edge from-layer="2064" from-port="1" to-layer="2069" to-port="0"/>
		<edge from-layer="2065" from-port="1" to-layer="2069" to-port="1"/>
		<edge from-layer="2066" from-port="1" to-layer="2069" to-port="2"/>
		<edge from-layer="2067" from-port="1" to-layer="2069" to-port="3"/>
		<edge from-layer="2068" from-port="1" to-layer="2069" to-port="4"/>
		<edge from-layer="2070" from-port="1" to-layer="2071" to-port="0"/>
		<edge from-layer="2071" from-port="1" to-layer="2076" to-port="0"/>
		<edge from-layer="2072" from-port="1" to-layer="2076" to-port="1"/>
		<edge from-layer="2073" from-port="1" to-layer="2076" to-port="2"/>
		<edge from-layer="2074" from-port="1" to-layer="2076" to-port="3"/>
		<edge from-layer="2075" from-port="1" to-layer="2076" to-port="4"/>
		<edge from-layer="2069" from-port="5" to-layer="2077" to-port="0"/>
		<edge from-layer="2076" from-port="5" to-layer="2077" to-port="1"/>
		<edge from-layer="2077" from-port="2" to-layer="2079" to-port="0"/>
		<edge from-layer="2078" from-port="1" to-layer="2079" to-port="1"/>
		<edge from-layer="2079" from-port="2" to-layer="2084" to-port="0"/>
		<edge from-layer="2080" from-port="1" to-layer="2084" to-port="1"/>
		<edge from-layer="2081" from-port="1" to-layer="2084" to-port="2"/>
		<edge from-layer="2082" from-port="1" to-layer="2084" to-port="3"/>
		<edge from-layer="2083" from-port="1" to-layer="2084" to-port="4"/>
		<edge from-layer="2035" from-port="5" to-layer="2085" to-port="0"/>
		<edge from-layer="2084" from-port="5" to-layer="2085" to-port="1"/>
		<edge from-layer="2085" from-port="2" to-layer="2086" to-port="0"/>
		<edge from-layer="2086" from-port="1" to-layer="2091" to-port="0"/>
		<edge from-layer="2087" from-port="1" to-layer="2091" to-port="1"/>
		<edge from-layer="2088" from-port="1" to-layer="2091" to-port="2"/>
		<edge from-layer="2089" from-port="1" to-layer="2091" to-port="3"/>
		<edge from-layer="2090" from-port="1" to-layer="2091" to-port="4"/>
		<edge from-layer="2092" from-port="1" to-layer="2093" to-port="0"/>
		<edge from-layer="2093" from-port="1" to-layer="2098" to-port="0"/>
		<edge from-layer="2094" from-port="1" to-layer="2098" to-port="1"/>
		<edge from-layer="2095" from-port="1" to-layer="2098" to-port="2"/>
		<edge from-layer="2096" from-port="1" to-layer="2098" to-port="3"/>
		<edge from-layer="2097" from-port="1" to-layer="2098" to-port="4"/>
		<edge from-layer="2091" from-port="5" to-layer="2099" to-port="0"/>
		<edge from-layer="2098" from-port="5" to-layer="2099" to-port="1"/>
		<edge from-layer="2099" from-port="2" to-layer="2101" to-port="0"/>
		<edge from-layer="2100" from-port="1" to-layer="2101" to-port="1"/>
		<edge from-layer="2101" from-port="2" to-layer="2102" to-port="0"/>
		<edge from-layer="2102" from-port="1" to-layer="2107" to-port="0"/>
		<edge from-layer="2103" from-port="1" to-layer="2107" to-port="1"/>
		<edge from-layer="2104" from-port="1" to-layer="2107" to-port="2"/>
		<edge from-layer="2105" from-port="1" to-layer="2107" to-port="3"/>
		<edge from-layer="2106" from-port="1" to-layer="2107" to-port="4"/>
		<edge from-layer="2108" from-port="1" to-layer="2109" to-port="0"/>
		<edge from-layer="2109" from-port="1" to-layer="2114" to-port="0"/>
		<edge from-layer="2110" from-port="1" to-layer="2114" to-port="1"/>
		<edge from-layer="2111" from-port="1" to-layer="2114" to-port="2"/>
		<edge from-layer="2112" from-port="1" to-layer="2114" to-port="3"/>
		<edge from-layer="2113" from-port="1" to-layer="2114" to-port="4"/>
		<edge from-layer="2114" from-port="5" to-layer="2116" to-port="0"/>
		<edge from-layer="2115" from-port="1" to-layer="2116" to-port="1"/>
		<edge from-layer="2107" from-port="5" to-layer="2117" to-port="0"/>
		<edge from-layer="2116" from-port="2" to-layer="2117" to-port="1"/>
		<edge from-layer="2117" from-port="2" to-layer="2119" to-port="0"/>
		<edge from-layer="2118" from-port="1" to-layer="2119" to-port="1"/>
		<edge from-layer="2119" from-port="2" to-layer="2120" to-port="0"/>
		<edge from-layer="2120" from-port="1" to-layer="2125" to-port="0"/>
		<edge from-layer="2121" from-port="1" to-layer="2125" to-port="1"/>
		<edge from-layer="2122" from-port="1" to-layer="2125" to-port="2"/>
		<edge from-layer="2123" from-port="1" to-layer="2125" to-port="3"/>
		<edge from-layer="2124" from-port="1" to-layer="2125" to-port="4"/>
		<edge from-layer="2126" from-port="1" to-layer="2127" to-port="0"/>
		<edge from-layer="2127" from-port="1" to-layer="2132" to-port="0"/>
		<edge from-layer="2128" from-port="1" to-layer="2132" to-port="1"/>
		<edge from-layer="2129" from-port="1" to-layer="2132" to-port="2"/>
		<edge from-layer="2130" from-port="1" to-layer="2132" to-port="3"/>
		<edge from-layer="2131" from-port="1" to-layer="2132" to-port="4"/>
		<edge from-layer="2125" from-port="5" to-layer="2133" to-port="0"/>
		<edge from-layer="2132" from-port="5" to-layer="2133" to-port="1"/>
		<edge from-layer="2133" from-port="2" to-layer="2135" to-port="0"/>
		<edge from-layer="2134" from-port="1" to-layer="2135" to-port="1"/>
		<edge from-layer="2135" from-port="2" to-layer="2140" to-port="0"/>
		<edge from-layer="2136" from-port="1" to-layer="2140" to-port="1"/>
		<edge from-layer="2137" from-port="1" to-layer="2140" to-port="2"/>
		<edge from-layer="2138" from-port="1" to-layer="2140" to-port="3"/>
		<edge from-layer="2139" from-port="1" to-layer="2140" to-port="4"/>
		<edge from-layer="2091" from-port="5" to-layer="2141" to-port="0"/>
		<edge from-layer="2140" from-port="5" to-layer="2141" to-port="1"/>
		<edge from-layer="2141" from-port="2" to-layer="2142" to-port="0"/>
		<edge from-layer="2142" from-port="1" to-layer="2147" to-port="0"/>
		<edge from-layer="2143" from-port="1" to-layer="2147" to-port="1"/>
		<edge from-layer="2144" from-port="1" to-layer="2147" to-port="2"/>
		<edge from-layer="2145" from-port="1" to-layer="2147" to-port="3"/>
		<edge from-layer="2146" from-port="1" to-layer="2147" to-port="4"/>
		<edge from-layer="2148" from-port="1" to-layer="2149" to-port="0"/>
		<edge from-layer="2149" from-port="1" to-layer="2154" to-port="0"/>
		<edge from-layer="2150" from-port="1" to-layer="2154" to-port="1"/>
		<edge from-layer="2151" from-port="1" to-layer="2154" to-port="2"/>
		<edge from-layer="2152" from-port="1" to-layer="2154" to-port="3"/>
		<edge from-layer="2153" from-port="1" to-layer="2154" to-port="4"/>
		<edge from-layer="2147" from-port="5" to-layer="2155" to-port="0"/>
		<edge from-layer="2154" from-port="5" to-layer="2155" to-port="1"/>
		<edge from-layer="2155" from-port="2" to-layer="2157" to-port="0"/>
		<edge from-layer="2156" from-port="1" to-layer="2157" to-port="1"/>
		<edge from-layer="2157" from-port="2" to-layer="2162" to-port="0"/>
		<edge from-layer="2158" from-port="1" to-layer="2162" to-port="1"/>
		<edge from-layer="2159" from-port="1" to-layer="2162" to-port="2"/>
		<edge from-layer="2160" from-port="1" to-layer="2162" to-port="3"/>
		<edge from-layer="2161" from-port="1" to-layer="2162" to-port="4"/>
		<edge from-layer="2163" from-port="1" to-layer="2164" to-port="0"/>
		<edge from-layer="2164" from-port="1" to-layer="2169" to-port="0"/>
		<edge from-layer="2165" from-port="1" to-layer="2169" to-port="1"/>
		<edge from-layer="2166" from-port="1" to-layer="2169" to-port="2"/>
		<edge from-layer="2167" from-port="1" to-layer="2169" to-port="3"/>
		<edge from-layer="2168" from-port="1" to-layer="2169" to-port="4"/>
		<edge from-layer="2162" from-port="5" to-layer="2170" to-port="0"/>
		<edge from-layer="2169" from-port="5" to-layer="2170" to-port="1"/>
		<edge from-layer="2170" from-port="2" to-layer="2172" to-port="0"/>
		<edge from-layer="2171" from-port="1" to-layer="2172" to-port="1"/>
		<edge from-layer="2172" from-port="2" to-layer="2174" to-port="0"/>
		<edge from-layer="2173" from-port="1" to-layer="2174" to-port="1"/>
		<edge from-layer="2174" from-port="2" to-layer="2176" to-port="0"/>
		<edge from-layer="2175" from-port="1" to-layer="2176" to-port="1"/>
		<edge from-layer="2177" from-port="1" to-layer="2178" to-port="0"/>
		<edge from-layer="2178" from-port="1" to-layer="2183" to-port="0"/>
		<edge from-layer="2179" from-port="1" to-layer="2183" to-port="1"/>
		<edge from-layer="2180" from-port="1" to-layer="2183" to-port="2"/>
		<edge from-layer="2181" from-port="1" to-layer="2183" to-port="3"/>
		<edge from-layer="2182" from-port="1" to-layer="2183" to-port="4"/>
		<edge from-layer="2147" from-port="5" to-layer="2184" to-port="0"/>
		<edge from-layer="2183" from-port="5" to-layer="2184" to-port="1"/>
		<edge from-layer="2184" from-port="2" to-layer="2186" to-port="0"/>
		<edge from-layer="2185" from-port="1" to-layer="2186" to-port="1"/>
		<edge from-layer="2186" from-port="2" to-layer="2187" to-port="0"/>
		<edge from-layer="2187" from-port="1" to-layer="2192" to-port="0"/>
		<edge from-layer="2188" from-port="1" to-layer="2192" to-port="1"/>
		<edge from-layer="2189" from-port="1" to-layer="2192" to-port="2"/>
		<edge from-layer="2190" from-port="1" to-layer="2192" to-port="3"/>
		<edge from-layer="2191" from-port="1" to-layer="2192" to-port="4"/>
		<edge from-layer="2193" from-port="1" to-layer="2194" to-port="0"/>
		<edge from-layer="2194" from-port="1" to-layer="2199" to-port="0"/>
		<edge from-layer="2195" from-port="1" to-layer="2199" to-port="1"/>
		<edge from-layer="2196" from-port="1" to-layer="2199" to-port="2"/>
		<edge from-layer="2197" from-port="1" to-layer="2199" to-port="3"/>
		<edge from-layer="2198" from-port="1" to-layer="2199" to-port="4"/>
		<edge from-layer="2192" from-port="5" to-layer="2200" to-port="0"/>
		<edge from-layer="2199" from-port="5" to-layer="2200" to-port="1"/>
		<edge from-layer="2200" from-port="2" to-layer="2202" to-port="0"/>
		<edge from-layer="2201" from-port="1" to-layer="2202" to-port="1"/>
		<edge from-layer="2202" from-port="2" to-layer="2204" to-port="0"/>
		<edge from-layer="2203" from-port="1" to-layer="2204" to-port="1"/>
		<edge from-layer="2204" from-port="2" to-layer="2206" to-port="0"/>
		<edge from-layer="2205" from-port="1" to-layer="2206" to-port="1"/>
		<edge from-layer="1453" from-port="2" to-layer="2207" to-port="0"/>
		<edge from-layer="2176" from-port="2" to-layer="2207" to-port="1"/>
		<edge from-layer="2206" from-port="2" to-layer="2207" to-port="2"/>
		<edge from-layer="2208" from-port="1" to-layer="2209" to-port="0"/>
		<edge from-layer="2209" from-port="1" to-layer="2214" to-port="0"/>
		<edge from-layer="2210" from-port="1" to-layer="2214" to-port="1"/>
		<edge from-layer="2211" from-port="1" to-layer="2214" to-port="2"/>
		<edge from-layer="2212" from-port="1" to-layer="2214" to-port="3"/>
		<edge from-layer="2213" from-port="1" to-layer="2214" to-port="4"/>
		<edge from-layer="1439" from-port="5" to-layer="2215" to-port="0"/>
		<edge from-layer="2214" from-port="5" to-layer="2215" to-port="1"/>
		<edge from-layer="2215" from-port="2" to-layer="2217" to-port="0"/>
		<edge from-layer="2216" from-port="1" to-layer="2217" to-port="1"/>
		<edge from-layer="2217" from-port="2" to-layer="2219" to-port="0"/>
		<edge from-layer="2218" from-port="1" to-layer="2219" to-port="1"/>
		<edge from-layer="2219" from-port="2" to-layer="2221" to-port="0"/>
		<edge from-layer="2220" from-port="1" to-layer="2221" to-port="1"/>
		<edge from-layer="2222" from-port="1" to-layer="2223" to-port="0"/>
		<edge from-layer="2223" from-port="1" to-layer="2228" to-port="0"/>
		<edge from-layer="2224" from-port="1" to-layer="2228" to-port="1"/>
		<edge from-layer="2225" from-port="1" to-layer="2228" to-port="2"/>
		<edge from-layer="2226" from-port="1" to-layer="2228" to-port="3"/>
		<edge from-layer="2227" from-port="1" to-layer="2228" to-port="4"/>
		<edge from-layer="2162" from-port="5" to-layer="2229" to-port="0"/>
		<edge from-layer="2228" from-port="5" to-layer="2229" to-port="1"/>
		<edge from-layer="2229" from-port="2" to-layer="2231" to-port="0"/>
		<edge from-layer="2230" from-port="1" to-layer="2231" to-port="1"/>
		<edge from-layer="2231" from-port="2" to-layer="2233" to-port="0"/>
		<edge from-layer="2232" from-port="1" to-layer="2233" to-port="1"/>
		<edge from-layer="2233" from-port="2" to-layer="2235" to-port="0"/>
		<edge from-layer="2234" from-port="1" to-layer="2235" to-port="1"/>
		<edge from-layer="2236" from-port="1" to-layer="2237" to-port="0"/>
		<edge from-layer="2237" from-port="1" to-layer="2242" to-port="0"/>
		<edge from-layer="2238" from-port="1" to-layer="2242" to-port="1"/>
		<edge from-layer="2239" from-port="1" to-layer="2242" to-port="2"/>
		<edge from-layer="2240" from-port="1" to-layer="2242" to-port="3"/>
		<edge from-layer="2241" from-port="1" to-layer="2242" to-port="4"/>
		<edge from-layer="2192" from-port="5" to-layer="2243" to-port="0"/>
		<edge from-layer="2242" from-port="5" to-layer="2243" to-port="1"/>
		<edge from-layer="2243" from-port="2" to-layer="2245" to-port="0"/>
		<edge from-layer="2244" from-port="1" to-layer="2245" to-port="1"/>
		<edge from-layer="2245" from-port="2" to-layer="2247" to-port="0"/>
		<edge from-layer="2246" from-port="1" to-layer="2247" to-port="1"/>
		<edge from-layer="2247" from-port="2" to-layer="2249" to-port="0"/>
		<edge from-layer="2248" from-port="1" to-layer="2249" to-port="1"/>
		<edge from-layer="2221" from-port="2" to-layer="2250" to-port="0"/>
		<edge from-layer="2235" from-port="2" to-layer="2250" to-port="1"/>
		<edge from-layer="2249" from-port="2" to-layer="2250" to-port="2"/>
		<edge from-layer="2250" from-port="3" to-layer="2252" to-port="0"/>
		<edge from-layer="2251" from-port="1" to-layer="2252" to-port="1"/>
		<edge from-layer="2252" from-port="2" to-layer="2253" to-port="0"/>
		<edge from-layer="2253" from-port="1" to-layer="2255" to-port="0"/>
		<edge from-layer="2254" from-port="1" to-layer="2255" to-port="1"/>
		<edge from-layer="1434" from-port="2" to-layer="2256" to-port="0"/>
		<edge from-layer="2256" from-port="1" to-layer="2260" to-port="0"/>
		<edge from-layer="2257" from-port="1" to-layer="2260" to-port="1"/>
		<edge from-layer="2258" from-port="1" to-layer="2260" to-port="2"/>
		<edge from-layer="2259" from-port="1" to-layer="2260" to-port="3"/>
		<edge from-layer="2" from-port="2" to-layer="2261" to-port="0"/>
		<edge from-layer="2261" from-port="1" to-layer="2265" to-port="0"/>
		<edge from-layer="2262" from-port="1" to-layer="2265" to-port="1"/>
		<edge from-layer="2263" from-port="1" to-layer="2265" to-port="2"/>
		<edge from-layer="2264" from-port="1" to-layer="2265" to-port="3"/>
		<edge from-layer="2260" from-port="4" to-layer="2266" to-port="0"/>
		<edge from-layer="2265" from-port="4" to-layer="2266" to-port="1"/>
		<edge from-layer="2266" from-port="2" to-layer="2268" to-port="0"/>
		<edge from-layer="2267" from-port="1" to-layer="2268" to-port="1"/>
		<edge from-layer="2157" from-port="2" to-layer="2269" to-port="0"/>
		<edge from-layer="2269" from-port="1" to-layer="2273" to-port="0"/>
		<edge from-layer="2270" from-port="1" to-layer="2273" to-port="1"/>
		<edge from-layer="2271" from-port="1" to-layer="2273" to-port="2"/>
		<edge from-layer="2272" from-port="1" to-layer="2273" to-port="3"/>
		<edge from-layer="2" from-port="2" to-layer="2274" to-port="0"/>
		<edge from-layer="2274" from-port="1" to-layer="2278" to-port="0"/>
		<edge from-layer="2275" from-port="1" to-layer="2278" to-port="1"/>
		<edge from-layer="2276" from-port="1" to-layer="2278" to-port="2"/>
		<edge from-layer="2277" from-port="1" to-layer="2278" to-port="3"/>
		<edge from-layer="2273" from-port="4" to-layer="2279" to-port="0"/>
		<edge from-layer="2278" from-port="4" to-layer="2279" to-port="1"/>
		<edge from-layer="2279" from-port="2" to-layer="2281" to-port="0"/>
		<edge from-layer="2280" from-port="1" to-layer="2281" to-port="1"/>
		<edge from-layer="2187" from-port="1" to-layer="2282" to-port="0"/>
		<edge from-layer="2282" from-port="1" to-layer="2286" to-port="0"/>
		<edge from-layer="2283" from-port="1" to-layer="2286" to-port="1"/>
		<edge from-layer="2284" from-port="1" to-layer="2286" to-port="2"/>
		<edge from-layer="2285" from-port="1" to-layer="2286" to-port="3"/>
		<edge from-layer="2" from-port="2" to-layer="2287" to-port="0"/>
		<edge from-layer="2287" from-port="1" to-layer="2291" to-port="0"/>
		<edge from-layer="2288" from-port="1" to-layer="2291" to-port="1"/>
		<edge from-layer="2289" from-port="1" to-layer="2291" to-port="2"/>
		<edge from-layer="2290" from-port="1" to-layer="2291" to-port="3"/>
		<edge from-layer="2286" from-port="4" to-layer="2292" to-port="0"/>
		<edge from-layer="2291" from-port="4" to-layer="2292" to-port="1"/>
		<edge from-layer="2292" from-port="2" to-layer="2294" to-port="0"/>
		<edge from-layer="2293" from-port="1" to-layer="2294" to-port="1"/>
		<edge from-layer="2268" from-port="2" to-layer="2295" to-port="0"/>
		<edge from-layer="2281" from-port="2" to-layer="2295" to-port="1"/>
		<edge from-layer="2294" from-port="2" to-layer="2295" to-port="2"/>
		<edge from-layer="2207" from-port="3" to-layer="2296" to-port="0"/>
		<edge from-layer="2255" from-port="2" to-layer="2296" to-port="1"/>
		<edge from-layer="2295" from-port="3" to-layer="2296" to-port="2"/>
		<edge from-layer="2296" from-port="3" to-layer="2297" to-port="0"/>
	</edges>
	<meta_data>
		<MO_version value="unknown version"/>
		<cli_parameters>
			<blobs_as_inputs value="True"/>
			<caffe_parser_path value="DIR"/>
			<data_type value="FP16"/>
			<disable_nhwc_to_nchw value="False"/>
			<disable_omitting_optional value="False"/>
			<disable_resnet_optimization value="False"/>
			<disable_weights_compression value="False"/>
			<enable_concat_optimization value="False"/>
			<enable_flattening_nested_params value="False"/>
			<enable_ssd_gluoncv value="False"/>
			<extensions value="DIR"/>
			<framework value="caffe"/>
			<freeze_placeholder_with_value value="{}"/>
			<generate_deprecated_IR_V2 value="False"/>
			<generate_deprecated_IR_V7 value="False"/>
			<generate_experimental_IR_V10 value="True"/>
			<input value="data"/>
			<input_model value="DIR/_iter_200000.caffemodel"/>
			<input_model_is_text value="False"/>
			<input_proto value="DIR/deploy.prototxt"/>
			<input_shape value="[1,3,1024,1024]"/>
			<k value="DIR/CustomLayersMapping.xml"/>
			<keep_quantize_ops_in_IR value="True"/>
			<keep_shape_ops value="True"/>
			<legacy_mxnet_model value="False"/>
			<log_level value="ERROR"/>
			<mean_scale_values value="{'data': {'mean': array([104., 117., 123.]), 'scale': None}}"/>
			<mean_values value="data[104.0,117.0,123.0]"/>
			<model_name value="person-vehicle-bike-detection-crossroad-0078"/>
			<move_to_preprocess value="False"/>
			<output value="['detection_out']"/>
			<output_dir value="DIR"/>
			<placeholder_data_types value="{}"/>
			<placeholder_shapes value="{'data': array([   1,    3, 1024, 1024])}"/>
			<progress value="False"/>
			<remove_memory value="False"/>
			<remove_output_softmax value="False"/>
			<reverse_input_channels value="False"/>
			<save_params_from_nd value="False"/>
			<scale_values value="()"/>
			<silent value="False"/>
			<stream_output value="False"/>
			<unset unset_cli_parameters="batch, counts, disable_fusing, disable_gfusing, finegrain_fusing, input_checkpoint, input_meta_graph, input_symbol, mean_file, mean_file_offsets, nd_prefix_name, pretrained_model_name, saved_model_dir, saved_model_tags, scale, tensorboard_logdir, tensorflow_custom_layer_libraries, tensorflow_custom_operations_config_update, tensorflow_object_detection_api_pipeline_config, tensorflow_use_custom_operations_config, transformations_config"/>
		</cli_parameters>
	</meta_data>
	<quantization_parameters>
		<config>{
		'compression': {
			'algorithms': [
				{
					'name': 'DefaultQuantization',
					'params': {
						'preset': 'performance',
						'stat_subset_size': 300
					}
				}
			],
			'target_device': 'CPU'
		},
		'engine': {
			'models': [
				{
					'name': 'person-vehicle-bike-detection-crossroad-0078',
					'launchers': [
						{
							'framework': 'dlsdk',
							'tags': [
								'FP32'
							],
							'model': 'PATH',
							'weights': 'PATH',
							'adapter': 'ssd',
							'device': 'CPU'
						}
					],
					'datasets': [
						{
							'name': 'crossroad_dataset_0078',
							'data_source': 'PATH',
							'annotation_conversion': {
								'converter': 'crossroad',
								'annotation_file': 'PATH'
							},
							'annotation': 'crossorad.pickle',
							'dataset_meta': 'crossroad.json',
							'preprocessing': [
								{
									'type': 'resize',
									'dst_width': 1024,
									'dst_height': 1024,
									'interpolation': 'LINEAR'
								}
							],
							'postprocessing': [
								{
									'type': 'resize_prediction_boxes'
								},
								{
									'type': 'cast_to_int'
								},
								{
									'type': 'filter',
									'apply_to': 'annotation',
									'area_ratio': 0.034722222222222224
								},
								{
									'type': 'filter',
									'apply_to': 'prediction',
									'min_confidence': 0.05,
									'is_empty': true
								}
							],
							'metrics': [
								{
									'type': 'map',
									'presenter': 'print_vector',
									'ignore_difficult': true,
									'include_boundaries': true,
									'allow_multiple_matches_per_ignored': true,
									'use_filtered_tp': false
								}
							]
						}
					]
				},
				{
					'name': 'person-vehicle-bike-detection-crossroad-0078',
					'launchers': [
						{
							'framework': 'dlsdk',
							'tags': [
								'FP16'
							],
							'model': 'PATH',
							'weights': 'PATH',
							'adapter': 'ssd',
							'device': 'CPU'
						}
					],
					'datasets': [
						{
							'name': 'crossroad_dataset_0078',
							'data_source': 'PATH',
							'annotation_conversion': {
								'converter': 'crossroad',
								'annotation_file': 'PATH'
							},
							'annotation': 'crossorad.pickle',
							'dataset_meta': 'crossroad.json',
							'preprocessing': [
								{
									'type': 'resize',
									'dst_width': 1024,
									'dst_height': 1024,
									'interpolation': 'LINEAR'
								}
							],
							'postprocessing': [
								{
									'type': 'resize_prediction_boxes'
								},
								{
									'type': 'cast_to_int'
								},
								{
									'type': 'filter',
									'apply_to': 'annotation',
									'area_ratio': 0.034722222222222224
								},
								{
									'type': 'filter',
									'apply_to': 'prediction',
									'min_confidence': 0.05,
									'is_empty': true
								}
							],
							'metrics': [
								{
									'type': 'map',
									'presenter': 'print_vector',
									'ignore_difficult': true,
									'include_boundaries': true,
									'allow_multiple_matches_per_ignored': true,
									'use_filtered_tp': false
								}
							]
						}
					]
				},
				{
					'name': 'person-vehicle-bike-detection-crossroad-0078',
					'launchers': [
						{
							'framework': 'dlsdk',
							'tags': [
								'FP16-INT8'
							],
							'model': 'PATH',
							'weights': 'PATH',
							'adapter': 'ssd',
							'device': 'CPU'
						}
					],
					'datasets': [
						{
							'name': 'crossroad_dataset_0078',
							'data_source': 'PATH',
							'annotation_conversion': {
								'converter': 'crossroad',
								'annotation_file': 'PATH'
							},
							'annotation': 'crossorad.pickle',
							'dataset_meta': 'crossroad.json',
							'preprocessing': [
								{
									'type': 'resize',
									'dst_width': 1024,
									'dst_height': 1024,
									'interpolation': 'LINEAR'
								}
							],
							'postprocessing': [
								{
									'type': 'resize_prediction_boxes'
								},
								{
									'type': 'cast_to_int'
								},
								{
									'type': 'filter',
									'apply_to': 'annotation',
									'area_ratio': 0.034722222222222224
								},
								{
									'type': 'filter',
									'apply_to': 'prediction',
									'min_confidence': 0.05,
									'is_empty': true
								}
							],
							'metrics': [
								{
									'type': 'map',
									'presenter': 'print_vector',
									'ignore_difficult': true,
									'include_boundaries': true,
									'allow_multiple_matches_per_ignored': true,
									'use_filtered_tp': false
								}
							]
						}
					]
				}
			],
			'global_definitions': '../dataset_definitions.yml',
			'stat_requests_number': null,
			'eval_requests_number': null,
			'type': 'accuracy_checker'
		}
	}</config>
		<version value="1.0"/>
		<cli_params value="{'evaluate': False, 'output_dir': 'PATH', 'direct_dump': True, 'log_level': 'INFO', 'pbar': False, 'keep_uncompressed_weights': False}"/>
	</quantization_parameters>
</net>
